node {
  name: "Placeholder"
  op: "Placeholder"
  attr {
    key: "dtype"
    value {
      type: DT_STRING
    }
  }
  attr {
    key: "shape"
    value {
      shape {
      }
    }
  }
}
node {
  name: "ReadFile"
  op: "ReadFile"
  input: "Placeholder"
}
node {
  name: "DecodeWav"
  op: "DecodeWav"
  input: "ReadFile"
  attr {
    key: "desired_channels"
    value {
      i: 1
    }
  }
  attr {
    key: "desired_samples"
    value {
      i: 16000
    }
  }
}
node {
  name: "Placeholder_1"
  op: "Placeholder"
  attr {
    key: "dtype"
    value {
      type: DT_FLOAT
    }
  }
  attr {
    key: "shape"
    value {
      shape {
      }
    }
  }
}
node {
  name: "Mul"
  op: "Mul"
  input: "DecodeWav"
  input: "Placeholder_1"
  attr {
    key: "T"
    value {
      type: DT_FLOAT
    }
  }
}
node {
  name: "Placeholder_2"
  op: "Placeholder"
  attr {
    key: "dtype"
    value {
      type: DT_INT32
    }
  }
  attr {
    key: "shape"
    value {
      shape {
        dim {
          size: 2
        }
        dim {
          size: 2
        }
      }
    }
  }
}
node {
  name: "Placeholder_3"
  op: "Placeholder"
  attr {
    key: "dtype"
    value {
      type: DT_INT32
    }
  }
  attr {
    key: "shape"
    value {
      shape {
        dim {
          size: 2
        }
      }
    }
  }
}
node {
  name: "Pad"
  op: "Pad"
  input: "Mul"
  input: "Placeholder_2"
  attr {
    key: "T"
    value {
      type: DT_FLOAT
    }
  }
  attr {
    key: "Tpaddings"
    value {
      type: DT_INT32
    }
  }
}
node {
  name: "Slice/size"
  op: "Const"
  attr {
    key: "dtype"
    value {
      type: DT_INT32
    }
  }
  attr {
    key: "value"
    value {
      tensor {
        dtype: DT_INT32
        tensor_shape {
          dim {
            size: 2
          }
        }
        tensor_content: "\200>\000\000\377\377\377\377"
      }
    }
  }
}
node {
  name: "Slice"
  op: "Slice"
  input: "Pad"
  input: "Placeholder_3"
  input: "Slice/size"
  attr {
    key: "Index"
    value {
      type: DT_INT32
    }
  }
  attr {
    key: "T"
    value {
      type: DT_FLOAT
    }
  }
}
node {
  name: "Placeholder_4"
  op: "Placeholder"
  attr {
    key: "dtype"
    value {
      type: DT_FLOAT
    }
  }
  attr {
    key: "shape"
    value {
      shape {
        dim {
          size: 16000
        }
        dim {
          size: 1
        }
      }
    }
  }
}
node {
  name: "Placeholder_5"
  op: "Placeholder"
  attr {
    key: "dtype"
    value {
      type: DT_FLOAT
    }
  }
  attr {
    key: "shape"
    value {
      shape {
      }
    }
  }
}
node {
  name: "Mul_1"
  op: "Mul"
  input: "Placeholder_4"
  input: "Placeholder_5"
  attr {
    key: "T"
    value {
      type: DT_FLOAT
    }
  }
}
node {
  name: "Add"
  op: "Add"
  input: "Mul_1"
  input: "Slice"
  attr {
    key: "T"
    value {
      type: DT_FLOAT
    }
  }
}
node {
  name: "clip_by_value/Minimum/y"
  op: "Const"
  attr {
    key: "dtype"
    value {
      type: DT_FLOAT
    }
  }
  attr {
    key: "value"
    value {
      tensor {
        dtype: DT_FLOAT
        tensor_shape {
        }
        float_val: 1.0
      }
    }
  }
}
node {
  name: "clip_by_value/Minimum"
  op: "Minimum"
  input: "Add"
  input: "clip_by_value/Minimum/y"
  attr {
    key: "T"
    value {
      type: DT_FLOAT
    }
  }
}
node {
  name: "clip_by_value/y"
  op: "Const"
  attr {
    key: "dtype"
    value {
      type: DT_FLOAT
    }
  }
  attr {
    key: "value"
    value {
      tensor {
        dtype: DT_FLOAT
        tensor_shape {
        }
        float_val: -1.0
      }
    }
  }
}
node {
  name: "clip_by_value"
  op: "Maximum"
  input: "clip_by_value/Minimum"
  input: "clip_by_value/y"
  attr {
    key: "T"
    value {
      type: DT_FLOAT
    }
  }
}
node {
  name: "AudioSpectrogram"
  op: "AudioSpectrogram"
  input: "clip_by_value"
  attr {
    key: "magnitude_squared"
    value {
      b: true
    }
  }
  attr {
    key: "stride"
    value {
      i: 320
    }
  }
  attr {
    key: "window_size"
    value {
      i: 320
    }
  }
}
node {
  name: "linear_to_mel_weight_matrix/sample_rate"
  op: "Const"
  attr {
    key: "dtype"
    value {
      type: DT_DOUBLE
    }
  }
  attr {
    key: "value"
    value {
      tensor {
        dtype: DT_DOUBLE
        tensor_shape {
        }
        double_val: 16000.0
      }
    }
  }
}
node {
  name: "linear_to_mel_weight_matrix/lower_edge_hertz"
  op: "Const"
  attr {
    key: "dtype"
    value {
      type: DT_DOUBLE
    }
  }
  attr {
    key: "value"
    value {
      tensor {
        dtype: DT_DOUBLE
        tensor_shape {
        }
        double_val: 20.0
      }
    }
  }
}
node {
  name: "linear_to_mel_weight_matrix/upper_edge_hertz"
  op: "Const"
  attr {
    key: "dtype"
    value {
      type: DT_DOUBLE
    }
  }
  attr {
    key: "value"
    value {
      tensor {
        dtype: DT_DOUBLE
        tensor_shape {
        }
        double_val: 4000.0
      }
    }
  }
}
node {
  name: "linear_to_mel_weight_matrix/Const"
  op: "Const"
  attr {
    key: "dtype"
    value {
      type: DT_DOUBLE
    }
  }
  attr {
    key: "value"
    value {
      tensor {
        dtype: DT_DOUBLE
        tensor_shape {
        }
        double_val: 0.0
      }
    }
  }
}
node {
  name: "linear_to_mel_weight_matrix/truediv/y"
  op: "Const"
  attr {
    key: "dtype"
    value {
      type: DT_DOUBLE
    }
  }
  attr {
    key: "value"
    value {
      tensor {
        dtype: DT_DOUBLE
        tensor_shape {
        }
        double_val: 2.0
      }
    }
  }
}
node {
  name: "linear_to_mel_weight_matrix/truediv"
  op: "RealDiv"
  input: "linear_to_mel_weight_matrix/sample_rate"
  input: "linear_to_mel_weight_matrix/truediv/y"
  attr {
    key: "T"
    value {
      type: DT_DOUBLE
    }
  }
}
node {
  name: "linear_to_mel_weight_matrix/LinSpace/num"
  op: "Const"
  attr {
    key: "dtype"
    value {
      type: DT_INT32
    }
  }
  attr {
    key: "value"
    value {
      tensor {
        dtype: DT_INT32
        tensor_shape {
        }
        int_val: 257
      }
    }
  }
}
node {
  name: "linear_to_mel_weight_matrix/LinSpace"
  op: "LinSpace"
  input: "linear_to_mel_weight_matrix/Const"
  input: "linear_to_mel_weight_matrix/truediv"
  input: "linear_to_mel_weight_matrix/LinSpace/num"
  attr {
    key: "T"
    value {
      type: DT_DOUBLE
    }
  }
  attr {
    key: "Tidx"
    value {
      type: DT_INT32
    }
  }
}
node {
  name: "linear_to_mel_weight_matrix/strided_slice/stack"
  op: "Const"
  attr {
    key: "dtype"
    value {
      type: DT_INT32
    }
  }
  attr {
    key: "value"
    value {
      tensor {
        dtype: DT_INT32
        tensor_shape {
          dim {
            size: 1
          }
        }
        int_val: 1
      }
    }
  }
}
node {
  name: "linear_to_mel_weight_matrix/strided_slice/stack_1"
  op: "Const"
  attr {
    key: "dtype"
    value {
      type: DT_INT32
    }
  }
  attr {
    key: "value"
    value {
      tensor {
        dtype: DT_INT32
        tensor_shape {
          dim {
            size: 1
          }
        }
        int_val: 0
      }
    }
  }
}
node {
  name: "linear_to_mel_weight_matrix/strided_slice/stack_2"
  op: "Const"
  attr {
    key: "dtype"
    value {
      type: DT_INT32
    }
  }
  attr {
    key: "value"
    value {
      tensor {
        dtype: DT_INT32
        tensor_shape {
          dim {
            size: 1
          }
        }
        int_val: 1
      }
    }
  }
}
node {
  name: "linear_to_mel_weight_matrix/strided_slice"
  op: "StridedSlice"
  input: "linear_to_mel_weight_matrix/LinSpace"
  input: "linear_to_mel_weight_matrix/strided_slice/stack"
  input: "linear_to_mel_weight_matrix/strided_slice/stack_1"
  input: "linear_to_mel_weight_matrix/strided_slice/stack_2"
  attr {
    key: "Index"
    value {
      type: DT_INT32
    }
  }
  attr {
    key: "T"
    value {
      type: DT_DOUBLE
    }
  }
  attr {
    key: "begin_mask"
    value {
      i: 0
    }
  }
  attr {
    key: "ellipsis_mask"
    value {
      i: 0
    }
  }
  attr {
    key: "end_mask"
    value {
      i: 1
    }
  }
  attr {
    key: "new_axis_mask"
    value {
      i: 0
    }
  }
  attr {
    key: "shrink_axis_mask"
    value {
      i: 0
    }
  }
}
node {
  name: "linear_to_mel_weight_matrix/hertz_to_mel/truediv/y"
  op: "Const"
  attr {
    key: "dtype"
    value {
      type: DT_DOUBLE
    }
  }
  attr {
    key: "value"
    value {
      tensor {
        dtype: DT_DOUBLE
        tensor_shape {
        }
        double_val: 700.0
      }
    }
  }
}
node {
  name: "linear_to_mel_weight_matrix/hertz_to_mel/truediv"
  op: "RealDiv"
  input: "linear_to_mel_weight_matrix/strided_slice"
  input: "linear_to_mel_weight_matrix/hertz_to_mel/truediv/y"
  attr {
    key: "T"
    value {
      type: DT_DOUBLE
    }
  }
}
node {
  name: "linear_to_mel_weight_matrix/hertz_to_mel/add/x"
  op: "Const"
  attr {
    key: "dtype"
    value {
      type: DT_DOUBLE
    }
  }
  attr {
    key: "value"
    value {
      tensor {
        dtype: DT_DOUBLE
        tensor_shape {
        }
        double_val: 1.0
      }
    }
  }
}
node {
  name: "linear_to_mel_weight_matrix/hertz_to_mel/add"
  op: "Add"
  input: "linear_to_mel_weight_matrix/hertz_to_mel/add/x"
  input: "linear_to_mel_weight_matrix/hertz_to_mel/truediv"
  attr {
    key: "T"
    value {
      type: DT_DOUBLE
    }
  }
}
node {
  name: "linear_to_mel_weight_matrix/hertz_to_mel/Log"
  op: "Log"
  input: "linear_to_mel_weight_matrix/hertz_to_mel/add"
  attr {
    key: "T"
    value {
      type: DT_DOUBLE
    }
  }
}
node {
  name: "linear_to_mel_weight_matrix/hertz_to_mel/mul/x"
  op: "Const"
  attr {
    key: "dtype"
    value {
      type: DT_DOUBLE
    }
  }
  attr {
    key: "value"
    value {
      tensor {
        dtype: DT_DOUBLE
        tensor_shape {
        }
        double_val: 1127.0
      }
    }
  }
}
node {
  name: "linear_to_mel_weight_matrix/hertz_to_mel/mul"
  op: "Mul"
  input: "linear_to_mel_weight_matrix/hertz_to_mel/mul/x"
  input: "linear_to_mel_weight_matrix/hertz_to_mel/Log"
  attr {
    key: "T"
    value {
      type: DT_DOUBLE
    }
  }
}
node {
  name: "linear_to_mel_weight_matrix/ExpandDims/dim"
  op: "Const"
  attr {
    key: "dtype"
    value {
      type: DT_INT32
    }
  }
  attr {
    key: "value"
    value {
      tensor {
        dtype: DT_INT32
        tensor_shape {
        }
        int_val: 1
      }
    }
  }
}
node {
  name: "linear_to_mel_weight_matrix/ExpandDims"
  op: "ExpandDims"
  input: "linear_to_mel_weight_matrix/hertz_to_mel/mul"
  input: "linear_to_mel_weight_matrix/ExpandDims/dim"
  attr {
    key: "T"
    value {
      type: DT_DOUBLE
    }
  }
  attr {
    key: "Tdim"
    value {
      type: DT_INT32
    }
  }
}
node {
  name: "linear_to_mel_weight_matrix/hertz_to_mel_1/truediv/y"
  op: "Const"
  attr {
    key: "dtype"
    value {
      type: DT_DOUBLE
    }
  }
  attr {
    key: "value"
    value {
      tensor {
        dtype: DT_DOUBLE
        tensor_shape {
        }
        double_val: 700.0
      }
    }
  }
}
node {
  name: "linear_to_mel_weight_matrix/hertz_to_mel_1/truediv"
  op: "RealDiv"
  input: "linear_to_mel_weight_matrix/lower_edge_hertz"
  input: "linear_to_mel_weight_matrix/hertz_to_mel_1/truediv/y"
  attr {
    key: "T"
    value {
      type: DT_DOUBLE
    }
  }
}
node {
  name: "linear_to_mel_weight_matrix/hertz_to_mel_1/add/x"
  op: "Const"
  attr {
    key: "dtype"
    value {
      type: DT_DOUBLE
    }
  }
  attr {
    key: "value"
    value {
      tensor {
        dtype: DT_DOUBLE
        tensor_shape {
        }
        double_val: 1.0
      }
    }
  }
}
node {
  name: "linear_to_mel_weight_matrix/hertz_to_mel_1/add"
  op: "Add"
  input: "linear_to_mel_weight_matrix/hertz_to_mel_1/add/x"
  input: "linear_to_mel_weight_matrix/hertz_to_mel_1/truediv"
  attr {
    key: "T"
    value {
      type: DT_DOUBLE
    }
  }
}
node {
  name: "linear_to_mel_weight_matrix/hertz_to_mel_1/Log"
  op: "Log"
  input: "linear_to_mel_weight_matrix/hertz_to_mel_1/add"
  attr {
    key: "T"
    value {
      type: DT_DOUBLE
    }
  }
}
node {
  name: "linear_to_mel_weight_matrix/hertz_to_mel_1/mul/x"
  op: "Const"
  attr {
    key: "dtype"
    value {
      type: DT_DOUBLE
    }
  }
  attr {
    key: "value"
    value {
      tensor {
        dtype: DT_DOUBLE
        tensor_shape {
        }
        double_val: 1127.0
      }
    }
  }
}
node {
  name: "linear_to_mel_weight_matrix/hertz_to_mel_1/mul"
  op: "Mul"
  input: "linear_to_mel_weight_matrix/hertz_to_mel_1/mul/x"
  input: "linear_to_mel_weight_matrix/hertz_to_mel_1/Log"
  attr {
    key: "T"
    value {
      type: DT_DOUBLE
    }
  }
}
node {
  name: "linear_to_mel_weight_matrix/hertz_to_mel_2/truediv/y"
  op: "Const"
  attr {
    key: "dtype"
    value {
      type: DT_DOUBLE
    }
  }
  attr {
    key: "value"
    value {
      tensor {
        dtype: DT_DOUBLE
        tensor_shape {
        }
        double_val: 700.0
      }
    }
  }
}
node {
  name: "linear_to_mel_weight_matrix/hertz_to_mel_2/truediv"
  op: "RealDiv"
  input: "linear_to_mel_weight_matrix/upper_edge_hertz"
  input: "linear_to_mel_weight_matrix/hertz_to_mel_2/truediv/y"
  attr {
    key: "T"
    value {
      type: DT_DOUBLE
    }
  }
}
node {
  name: "linear_to_mel_weight_matrix/hertz_to_mel_2/add/x"
  op: "Const"
  attr {
    key: "dtype"
    value {
      type: DT_DOUBLE
    }
  }
  attr {
    key: "value"
    value {
      tensor {
        dtype: DT_DOUBLE
        tensor_shape {
        }
        double_val: 1.0
      }
    }
  }
}
node {
  name: "linear_to_mel_weight_matrix/hertz_to_mel_2/add"
  op: "Add"
  input: "linear_to_mel_weight_matrix/hertz_to_mel_2/add/x"
  input: "linear_to_mel_weight_matrix/hertz_to_mel_2/truediv"
  attr {
    key: "T"
    value {
      type: DT_DOUBLE
    }
  }
}
node {
  name: "linear_to_mel_weight_matrix/hertz_to_mel_2/Log"
  op: "Log"
  input: "linear_to_mel_weight_matrix/hertz_to_mel_2/add"
  attr {
    key: "T"
    value {
      type: DT_DOUBLE
    }
  }
}
node {
  name: "linear_to_mel_weight_matrix/hertz_to_mel_2/mul/x"
  op: "Const"
  attr {
    key: "dtype"
    value {
      type: DT_DOUBLE
    }
  }
  attr {
    key: "value"
    value {
      tensor {
        dtype: DT_DOUBLE
        tensor_shape {
        }
        double_val: 1127.0
      }
    }
  }
}
node {
  name: "linear_to_mel_weight_matrix/hertz_to_mel_2/mul"
  op: "Mul"
  input: "linear_to_mel_weight_matrix/hertz_to_mel_2/mul/x"
  input: "linear_to_mel_weight_matrix/hertz_to_mel_2/Log"
  attr {
    key: "T"
    value {
      type: DT_DOUBLE
    }
  }
}
node {
  name: "linear_to_mel_weight_matrix/LinSpace_1/num"
  op: "Const"
  attr {
    key: "dtype"
    value {
      type: DT_INT32
    }
  }
  attr {
    key: "value"
    value {
      tensor {
        dtype: DT_INT32
        tensor_shape {
        }
        int_val: 22
      }
    }
  }
}
node {
  name: "linear_to_mel_weight_matrix/LinSpace_1"
  op: "LinSpace"
  input: "linear_to_mel_weight_matrix/hertz_to_mel_1/mul"
  input: "linear_to_mel_weight_matrix/hertz_to_mel_2/mul"
  input: "linear_to_mel_weight_matrix/LinSpace_1/num"
  attr {
    key: "T"
    value {
      type: DT_DOUBLE
    }
  }
  attr {
    key: "Tidx"
    value {
      type: DT_INT32
    }
  }
}
node {
  name: "linear_to_mel_weight_matrix/frame/frame_length"
  op: "Const"
  attr {
    key: "dtype"
    value {
      type: DT_INT32
    }
  }
  attr {
    key: "value"
    value {
      tensor {
        dtype: DT_INT32
        tensor_shape {
        }
        int_val: 3
      }
    }
  }
}
node {
  name: "linear_to_mel_weight_matrix/frame/frame_step"
  op: "Const"
  attr {
    key: "dtype"
    value {
      type: DT_INT32
    }
  }
  attr {
    key: "value"
    value {
      tensor {
        dtype: DT_INT32
        tensor_shape {
        }
        int_val: 1
      }
    }
  }
}
node {
  name: "linear_to_mel_weight_matrix/frame/axis"
  op: "Const"
  attr {
    key: "dtype"
    value {
      type: DT_INT32
    }
  }
  attr {
    key: "value"
    value {
      tensor {
        dtype: DT_INT32
        tensor_shape {
        }
        int_val: -1
      }
    }
  }
}
node {
  name: "linear_to_mel_weight_matrix/frame/Rank"
  op: "Const"
  attr {
    key: "dtype"
    value {
      type: DT_INT32
    }
  }
  attr {
    key: "value"
    value {
      tensor {
        dtype: DT_INT32
        tensor_shape {
        }
        int_val: 1
      }
    }
  }
}
node {
  name: "linear_to_mel_weight_matrix/frame/range/start"
  op: "Const"
  attr {
    key: "dtype"
    value {
      type: DT_INT32
    }
  }
  attr {
    key: "value"
    value {
      tensor {
        dtype: DT_INT32
        tensor_shape {
        }
        int_val: 0
      }
    }
  }
}
node {
  name: "linear_to_mel_weight_matrix/frame/range/delta"
  op: "Const"
  attr {
    key: "dtype"
    value {
      type: DT_INT32
    }
  }
  attr {
    key: "value"
    value {
      tensor {
        dtype: DT_INT32
        tensor_shape {
        }
        int_val: 1
      }
    }
  }
}
node {
  name: "linear_to_mel_weight_matrix/frame/range"
  op: "Range"
  input: "linear_to_mel_weight_matrix/frame/range/start"
  input: "linear_to_mel_weight_matrix/frame/Rank"
  input: "linear_to_mel_weight_matrix/frame/range/delta"
  attr {
    key: "Tidx"
    value {
      type: DT_INT32
    }
  }
}
node {
  name: "linear_to_mel_weight_matrix/frame/add/y"
  op: "Const"
  attr {
    key: "dtype"
    value {
      type: DT_INT32
    }
  }
  attr {
    key: "value"
    value {
      tensor {
        dtype: DT_INT32
        tensor_shape {
        }
        int_val: 1
      }
    }
  }
}
node {
  name: "linear_to_mel_weight_matrix/frame/add"
  op: "Add"
  input: "linear_to_mel_weight_matrix/frame/axis"
  input: "linear_to_mel_weight_matrix/frame/add/y"
  attr {
    key: "T"
    value {
      type: DT_INT32
    }
  }
}
node {
  name: "linear_to_mel_weight_matrix/frame/strided_slice/stack"
  op: "Pack"
  input: "linear_to_mel_weight_matrix/frame/axis"
  attr {
    key: "N"
    value {
      i: 1
    }
  }
  attr {
    key: "T"
    value {
      type: DT_INT32
    }
  }
  attr {
    key: "axis"
    value {
      i: 0
    }
  }
}
node {
  name: "linear_to_mel_weight_matrix/frame/strided_slice/stack_1"
  op: "Pack"
  input: "linear_to_mel_weight_matrix/frame/add"
  attr {
    key: "N"
    value {
      i: 1
    }
  }
  attr {
    key: "T"
    value {
      type: DT_INT32
    }
  }
  attr {
    key: "axis"
    value {
      i: 0
    }
  }
}
node {
  name: "linear_to_mel_weight_matrix/frame/strided_slice/stack_2"
  op: "Const"
  attr {
    key: "dtype"
    value {
      type: DT_INT32
    }
  }
  attr {
    key: "value"
    value {
      tensor {
        dtype: DT_INT32
        tensor_shape {
          dim {
            size: 1
          }
        }
        int_val: 1
      }
    }
  }
}
node {
  name: "linear_to_mel_weight_matrix/frame/strided_slice"
  op: "StridedSlice"
  input: "linear_to_mel_weight_matrix/frame/range"
  input: "linear_to_mel_weight_matrix/frame/strided_slice/stack"
  input: "linear_to_mel_weight_matrix/frame/strided_slice/stack_1"
  input: "linear_to_mel_weight_matrix/frame/strided_slice/stack_2"
  attr {
    key: "Index"
    value {
      type: DT_INT32
    }
  }
  attr {
    key: "T"
    value {
      type: DT_INT32
    }
  }
  attr {
    key: "begin_mask"
    value {
      i: 0
    }
  }
  attr {
    key: "ellipsis_mask"
    value {
      i: 0
    }
  }
  attr {
    key: "end_mask"
    value {
      i: 0
    }
  }
  attr {
    key: "new_axis_mask"
    value {
      i: 0
    }
  }
  attr {
    key: "shrink_axis_mask"
    value {
      i: 1
    }
  }
}
node {
  name: "linear_to_mel_weight_matrix/frame/Shape"
  op: "Const"
  attr {
    key: "dtype"
    value {
      type: DT_INT32
    }
  }
  attr {
    key: "value"
    value {
      tensor {
        dtype: DT_INT32
        tensor_shape {
          dim {
            size: 1
          }
        }
        int_val: 22
      }
    }
  }
}
node {
  name: "linear_to_mel_weight_matrix/frame/sub/y"
  op: "Const"
  attr {
    key: "dtype"
    value {
      type: DT_INT32
    }
  }
  attr {
    key: "value"
    value {
      tensor {
        dtype: DT_INT32
        tensor_shape {
        }
        int_val: 1
      }
    }
  }
}
node {
  name: "linear_to_mel_weight_matrix/frame/sub"
  op: "Sub"
  input: "linear_to_mel_weight_matrix/frame/Rank"
  input: "linear_to_mel_weight_matrix/frame/sub/y"
  attr {
    key: "T"
    value {
      type: DT_INT32
    }
  }
}
node {
  name: "linear_to_mel_weight_matrix/frame/sub_1"
  op: "Sub"
  input: "linear_to_mel_weight_matrix/frame/sub"
  input: "linear_to_mel_weight_matrix/frame/strided_slice"
  attr {
    key: "T"
    value {
      type: DT_INT32
    }
  }
}
node {
  name: "linear_to_mel_weight_matrix/frame/packed/1"
  op: "Const"
  attr {
    key: "dtype"
    value {
      type: DT_INT32
    }
  }
  attr {
    key: "value"
    value {
      tensor {
        dtype: DT_INT32
        tensor_shape {
        }
        int_val: 1
      }
    }
  }
}
node {
  name: "linear_to_mel_weight_matrix/frame/packed"
  op: "Pack"
  input: "linear_to_mel_weight_matrix/frame/strided_slice"
  input: "linear_to_mel_weight_matrix/frame/packed/1"
  input: "linear_to_mel_weight_matrix/frame/sub_1"
  attr {
    key: "N"
    value {
      i: 3
    }
  }
  attr {
    key: "T"
    value {
      type: DT_INT32
    }
  }
  attr {
    key: "axis"
    value {
      i: 0
    }
  }
}
node {
  name: "linear_to_mel_weight_matrix/frame/split/split_dim"
  op: "Const"
  attr {
    key: "dtype"
    value {
      type: DT_INT32
    }
  }
  attr {
    key: "value"
    value {
      tensor {
        dtype: DT_INT32
        tensor_shape {
        }
        int_val: 0
      }
    }
  }
}
node {
  name: "linear_to_mel_weight_matrix/frame/split"
  op: "SplitV"
  input: "linear_to_mel_weight_matrix/frame/Shape"
  input: "linear_to_mel_weight_matrix/frame/packed"
  input: "linear_to_mel_weight_matrix/frame/split/split_dim"
  attr {
    key: "T"
    value {
      type: DT_INT32
    }
  }
  attr {
    key: "Tlen"
    value {
      type: DT_INT32
    }
  }
  attr {
    key: "num_split"
    value {
      i: 3
    }
  }
}
node {
  name: "linear_to_mel_weight_matrix/frame/Reshape/shape"
  op: "Const"
  attr {
    key: "dtype"
    value {
      type: DT_INT32
    }
  }
  attr {
    key: "value"
    value {
      tensor {
        dtype: DT_INT32
        tensor_shape {
          dim {
          }
        }
      }
    }
  }
}
node {
  name: "linear_to_mel_weight_matrix/frame/Reshape"
  op: "Reshape"
  input: "linear_to_mel_weight_matrix/frame/split:1"
  input: "linear_to_mel_weight_matrix/frame/Reshape/shape"
  attr {
    key: "T"
    value {
      type: DT_INT32
    }
  }
  attr {
    key: "Tshape"
    value {
      type: DT_INT32
    }
  }
}
node {
  name: "linear_to_mel_weight_matrix/frame/Size"
  op: "Size"
  input: "linear_to_mel_weight_matrix/frame/split"
  attr {
    key: "T"
    value {
      type: DT_INT32
    }
  }
  attr {
    key: "out_type"
    value {
      type: DT_INT32
    }
  }
}
node {
  name: "linear_to_mel_weight_matrix/frame/Size_1"
  op: "Size"
  input: "linear_to_mel_weight_matrix/frame/split:2"
  attr {
    key: "T"
    value {
      type: DT_INT32
    }
  }
  attr {
    key: "out_type"
    value {
      type: DT_INT32
    }
  }
}
node {
  name: "linear_to_mel_weight_matrix/frame/sub_2"
  op: "Sub"
  input: "linear_to_mel_weight_matrix/frame/Reshape"
  input: "linear_to_mel_weight_matrix/frame/frame_length"
  attr {
    key: "T"
    value {
      type: DT_INT32
    }
  }
}
node {
  name: "linear_to_mel_weight_matrix/frame/floordiv"
  op: "FloorDiv"
  input: "linear_to_mel_weight_matrix/frame/sub_2"
  input: "linear_to_mel_weight_matrix/frame/frame_step"
  attr {
    key: "T"
    value {
      type: DT_INT32
    }
  }
}
node {
  name: "linear_to_mel_weight_matrix/frame/add_1/x"
  op: "Const"
  attr {
    key: "dtype"
    value {
      type: DT_INT32
    }
  }
  attr {
    key: "value"
    value {
      tensor {
        dtype: DT_INT32
        tensor_shape {
        }
        int_val: 1
      }
    }
  }
}
node {
  name: "linear_to_mel_weight_matrix/frame/add_1"
  op: "Add"
  input: "linear_to_mel_weight_matrix/frame/add_1/x"
  input: "linear_to_mel_weight_matrix/frame/floordiv"
  attr {
    key: "T"
    value {
      type: DT_INT32
    }
  }
}
node {
  name: "linear_to_mel_weight_matrix/frame/Maximum/x"
  op: "Const"
  attr {
    key: "dtype"
    value {
      type: DT_INT32
    }
  }
  attr {
    key: "value"
    value {
      tensor {
        dtype: DT_INT32
        tensor_shape {
        }
        int_val: 0
      }
    }
  }
}
node {
  name: "linear_to_mel_weight_matrix/frame/Maximum"
  op: "Maximum"
  input: "linear_to_mel_weight_matrix/frame/Maximum/x"
  input: "linear_to_mel_weight_matrix/frame/add_1"
  attr {
    key: "T"
    value {
      type: DT_INT32
    }
  }
}
node {
  name: "linear_to_mel_weight_matrix/frame/gcd/Const"
  op: "Const"
  attr {
    key: "dtype"
    value {
      type: DT_INT32
    }
  }
  attr {
    key: "value"
    value {
      tensor {
        dtype: DT_INT32
        tensor_shape {
        }
        int_val: 1
      }
    }
  }
}
node {
  name: "linear_to_mel_weight_matrix/frame/floordiv_1"
  op: "FloorDiv"
  input: "linear_to_mel_weight_matrix/frame/frame_length"
  input: "linear_to_mel_weight_matrix/frame/gcd/Const"
  attr {
    key: "T"
    value {
      type: DT_INT32
    }
  }
}
node {
  name: "linear_to_mel_weight_matrix/frame/floordiv_2"
  op: "FloorDiv"
  input: "linear_to_mel_weight_matrix/frame/frame_step"
  input: "linear_to_mel_weight_matrix/frame/gcd/Const"
  attr {
    key: "T"
    value {
      type: DT_INT32
    }
  }
}
node {
  name: "linear_to_mel_weight_matrix/frame/floordiv_3"
  op: "FloorDiv"
  input: "linear_to_mel_weight_matrix/frame/Reshape"
  input: "linear_to_mel_weight_matrix/frame/gcd/Const"
  attr {
    key: "T"
    value {
      type: DT_INT32
    }
  }
}
node {
  name: "linear_to_mel_weight_matrix/frame/mul"
  op: "Mul"
  input: "linear_to_mel_weight_matrix/frame/floordiv_3"
  input: "linear_to_mel_weight_matrix/frame/gcd/Const"
  attr {
    key: "T"
    value {
      type: DT_INT32
    }
  }
}
node {
  name: "linear_to_mel_weight_matrix/frame/concat/values_1"
  op: "Pack"
  input: "linear_to_mel_weight_matrix/frame/mul"
  attr {
    key: "N"
    value {
      i: 1
    }
  }
  attr {
    key: "T"
    value {
      type: DT_INT32
    }
  }
  attr {
    key: "axis"
    value {
      i: 0
    }
  }
}
node {
  name: "linear_to_mel_weight_matrix/frame/concat/axis"
  op: "Const"
  attr {
    key: "dtype"
    value {
      type: DT_INT32
    }
  }
  attr {
    key: "value"
    value {
      tensor {
        dtype: DT_INT32
        tensor_shape {
        }
        int_val: 0
      }
    }
  }
}
node {
  name: "linear_to_mel_weight_matrix/frame/concat"
  op: "ConcatV2"
  input: "linear_to_mel_weight_matrix/frame/split"
  input: "linear_to_mel_weight_matrix/frame/concat/values_1"
  input: "linear_to_mel_weight_matrix/frame/split:2"
  input: "linear_to_mel_weight_matrix/frame/concat/axis"
  attr {
    key: "N"
    value {
      i: 3
    }
  }
  attr {
    key: "T"
    value {
      type: DT_INT32
    }
  }
  attr {
    key: "Tidx"
    value {
      type: DT_INT32
    }
  }
}
node {
  name: "linear_to_mel_weight_matrix/frame/concat_1/values_1"
  op: "Pack"
  input: "linear_to_mel_weight_matrix/frame/floordiv_3"
  input: "linear_to_mel_weight_matrix/frame/gcd/Const"
  attr {
    key: "N"
    value {
      i: 2
    }
  }
  attr {
    key: "T"
    value {
      type: DT_INT32
    }
  }
  attr {
    key: "axis"
    value {
      i: 0
    }
  }
}
node {
  name: "linear_to_mel_weight_matrix/frame/concat_1/axis"
  op: "Const"
  attr {
    key: "dtype"
    value {
      type: DT_INT32
    }
  }
  attr {
    key: "value"
    value {
      tensor {
        dtype: DT_INT32
        tensor_shape {
        }
        int_val: 0
      }
    }
  }
}
node {
  name: "linear_to_mel_weight_matrix/frame/concat_1"
  op: "ConcatV2"
  input: "linear_to_mel_weight_matrix/frame/split"
  input: "linear_to_mel_weight_matrix/frame/concat_1/values_1"
  input: "linear_to_mel_weight_matrix/frame/split:2"
  input: "linear_to_mel_weight_matrix/frame/concat_1/axis"
  attr {
    key: "N"
    value {
      i: 3
    }
  }
  attr {
    key: "T"
    value {
      type: DT_INT32
    }
  }
  attr {
    key: "Tidx"
    value {
      type: DT_INT32
    }
  }
}
node {
  name: "linear_to_mel_weight_matrix/frame/zeros_like"
  op: "Const"
  attr {
    key: "dtype"
    value {
      type: DT_INT32
    }
  }
  attr {
    key: "value"
    value {
      tensor {
        dtype: DT_INT32
        tensor_shape {
          dim {
            size: 1
          }
        }
        int_val: 0
      }
    }
  }
}
node {
  name: "linear_to_mel_weight_matrix/frame/ones_like/Shape"
  op: "Const"
  attr {
    key: "dtype"
    value {
      type: DT_INT32
    }
  }
  attr {
    key: "value"
    value {
      tensor {
        dtype: DT_INT32
        tensor_shape {
          dim {
            size: 1
          }
        }
        int_val: 1
      }
    }
  }
}
node {
  name: "linear_to_mel_weight_matrix/frame/ones_like/Const"
  op: "Const"
  attr {
    key: "dtype"
    value {
      type: DT_INT32
    }
  }
  attr {
    key: "value"
    value {
      tensor {
        dtype: DT_INT32
        tensor_shape {
        }
        int_val: 1
      }
    }
  }
}
node {
  name: "linear_to_mel_weight_matrix/frame/ones_like"
  op: "Fill"
  input: "linear_to_mel_weight_matrix/frame/ones_like/Shape"
  input: "linear_to_mel_weight_matrix/frame/ones_like/Const"
  attr {
    key: "T"
    value {
      type: DT_INT32
    }
  }
  attr {
    key: "index_type"
    value {
      type: DT_INT32
    }
  }
}
node {
  name: "linear_to_mel_weight_matrix/frame/StridedSlice"
  op: "StridedSlice"
  input: "linear_to_mel_weight_matrix/LinSpace_1"
  input: "linear_to_mel_weight_matrix/frame/zeros_like"
  input: "linear_to_mel_weight_matrix/frame/concat"
  input: "linear_to_mel_weight_matrix/frame/ones_like"
  attr {
    key: "Index"
    value {
      type: DT_INT32
    }
  }
  attr {
    key: "T"
    value {
      type: DT_DOUBLE
    }
  }
  attr {
    key: "begin_mask"
    value {
      i: 0
    }
  }
  attr {
    key: "ellipsis_mask"
    value {
      i: 0
    }
  }
  attr {
    key: "end_mask"
    value {
      i: 0
    }
  }
  attr {
    key: "new_axis_mask"
    value {
      i: 0
    }
  }
  attr {
    key: "shrink_axis_mask"
    value {
      i: 0
    }
  }
}
node {
  name: "linear_to_mel_weight_matrix/frame/Reshape_1"
  op: "Reshape"
  input: "linear_to_mel_weight_matrix/frame/StridedSlice"
  input: "linear_to_mel_weight_matrix/frame/concat_1"
  attr {
    key: "T"
    value {
      type: DT_DOUBLE
    }
  }
  attr {
    key: "Tshape"
    value {
      type: DT_INT32
    }
  }
}
node {
  name: "linear_to_mel_weight_matrix/frame/range_1/start"
  op: "Const"
  attr {
    key: "dtype"
    value {
      type: DT_INT32
    }
  }
  attr {
    key: "value"
    value {
      tensor {
        dtype: DT_INT32
        tensor_shape {
        }
        int_val: 0
      }
    }
  }
}
node {
  name: "linear_to_mel_weight_matrix/frame/range_1/delta"
  op: "Const"
  attr {
    key: "dtype"
    value {
      type: DT_INT32
    }
  }
  attr {
    key: "value"
    value {
      tensor {
        dtype: DT_INT32
        tensor_shape {
        }
        int_val: 1
      }
    }
  }
}
node {
  name: "linear_to_mel_weight_matrix/frame/range_1"
  op: "Range"
  input: "linear_to_mel_weight_matrix/frame/range_1/start"
  input: "linear_to_mel_weight_matrix/frame/Maximum"
  input: "linear_to_mel_weight_matrix/frame/range_1/delta"
  attr {
    key: "Tidx"
    value {
      type: DT_INT32
    }
  }
}
node {
  name: "linear_to_mel_weight_matrix/frame/mul_1"
  op: "Mul"
  input: "linear_to_mel_weight_matrix/frame/range_1"
  input: "linear_to_mel_weight_matrix/frame/floordiv_2"
  attr {
    key: "T"
    value {
      type: DT_INT32
    }
  }
}
node {
  name: "linear_to_mel_weight_matrix/frame/Reshape_2/shape/1"
  op: "Const"
  attr {
    key: "dtype"
    value {
      type: DT_INT32
    }
  }
  attr {
    key: "value"
    value {
      tensor {
        dtype: DT_INT32
        tensor_shape {
        }
        int_val: 1
      }
    }
  }
}
node {
  name: "linear_to_mel_weight_matrix/frame/Reshape_2/shape"
  op: "Pack"
  input: "linear_to_mel_weight_matrix/frame/Maximum"
  input: "linear_to_mel_weight_matrix/frame/Reshape_2/shape/1"
  attr {
    key: "N"
    value {
      i: 2
    }
  }
  attr {
    key: "T"
    value {
      type: DT_INT32
    }
  }
  attr {
    key: "axis"
    value {
      i: 0
    }
  }
}
node {
  name: "linear_to_mel_weight_matrix/frame/Reshape_2"
  op: "Reshape"
  input: "linear_to_mel_weight_matrix/frame/mul_1"
  input: "linear_to_mel_weight_matrix/frame/Reshape_2/shape"
  attr {
    key: "T"
    value {
      type: DT_INT32
    }
  }
  attr {
    key: "Tshape"
    value {
      type: DT_INT32
    }
  }
}
node {
  name: "linear_to_mel_weight_matrix/frame/range_2/start"
  op: "Const"
  attr {
    key: "dtype"
    value {
      type: DT_INT32
    }
  }
  attr {
    key: "value"
    value {
      tensor {
        dtype: DT_INT32
        tensor_shape {
        }
        int_val: 0
      }
    }
  }
}
node {
  name: "linear_to_mel_weight_matrix/frame/range_2/delta"
  op: "Const"
  attr {
    key: "dtype"
    value {
      type: DT_INT32
    }
  }
  attr {
    key: "value"
    value {
      tensor {
        dtype: DT_INT32
        tensor_shape {
        }
        int_val: 1
      }
    }
  }
}
node {
  name: "linear_to_mel_weight_matrix/frame/range_2"
  op: "Range"
  input: "linear_to_mel_weight_matrix/frame/range_2/start"
  input: "linear_to_mel_weight_matrix/frame/floordiv_1"
  input: "linear_to_mel_weight_matrix/frame/range_2/delta"
  attr {
    key: "Tidx"
    value {
      type: DT_INT32
    }
  }
}
node {
  name: "linear_to_mel_weight_matrix/frame/Reshape_3/shape/0"
  op: "Const"
  attr {
    key: "dtype"
    value {
      type: DT_INT32
    }
  }
  attr {
    key: "value"
    value {
      tensor {
        dtype: DT_INT32
        tensor_shape {
        }
        int_val: 1
      }
    }
  }
}
node {
  name: "linear_to_mel_weight_matrix/frame/Reshape_3/shape"
  op: "Pack"
  input: "linear_to_mel_weight_matrix/frame/Reshape_3/shape/0"
  input: "linear_to_mel_weight_matrix/frame/floordiv_1"
  attr {
    key: "N"
    value {
      i: 2
    }
  }
  attr {
    key: "T"
    value {
      type: DT_INT32
    }
  }
  attr {
    key: "axis"
    value {
      i: 0
    }
  }
}
node {
  name: "linear_to_mel_weight_matrix/frame/Reshape_3"
  op: "Reshape"
  input: "linear_to_mel_weight_matrix/frame/range_2"
  input: "linear_to_mel_weight_matrix/frame/Reshape_3/shape"
  attr {
    key: "T"
    value {
      type: DT_INT32
    }
  }
  attr {
    key: "Tshape"
    value {
      type: DT_INT32
    }
  }
}
node {
  name: "linear_to_mel_weight_matrix/frame/add_2"
  op: "Add"
  input: "linear_to_mel_weight_matrix/frame/Reshape_2"
  input: "linear_to_mel_weight_matrix/frame/Reshape_3"
  attr {
    key: "T"
    value {
      type: DT_INT32
    }
  }
}
node {
  name: "linear_to_mel_weight_matrix/frame/GatherV2"
  op: "GatherV2"
  input: "linear_to_mel_weight_matrix/frame/Reshape_1"
  input: "linear_to_mel_weight_matrix/frame/add_2"
  input: "linear_to_mel_weight_matrix/frame/strided_slice"
  attr {
    key: "Taxis"
    value {
      type: DT_INT32
    }
  }
  attr {
    key: "Tindices"
    value {
      type: DT_INT32
    }
  }
  attr {
    key: "Tparams"
    value {
      type: DT_DOUBLE
    }
  }
}
node {
  name: "linear_to_mel_weight_matrix/frame/concat_2/values_1"
  op: "Pack"
  input: "linear_to_mel_weight_matrix/frame/Maximum"
  input: "linear_to_mel_weight_matrix/frame/frame_length"
  attr {
    key: "N"
    value {
      i: 2
    }
  }
  attr {
    key: "T"
    value {
      type: DT_INT32
    }
  }
  attr {
    key: "axis"
    value {
      i: 0
    }
  }
}
node {
  name: "linear_to_mel_weight_matrix/frame/concat_2/axis"
  op: "Const"
  attr {
    key: "dtype"
    value {
      type: DT_INT32
    }
  }
  attr {
    key: "value"
    value {
      tensor {
        dtype: DT_INT32
        tensor_shape {
        }
        int_val: 0
      }
    }
  }
}
node {
  name: "linear_to_mel_weight_matrix/frame/concat_2"
  op: "ConcatV2"
  input: "linear_to_mel_weight_matrix/frame/split"
  input: "linear_to_mel_weight_matrix/frame/concat_2/values_1"
  input: "linear_to_mel_weight_matrix/frame/split:2"
  input: "linear_to_mel_weight_matrix/frame/concat_2/axis"
  attr {
    key: "N"
    value {
      i: 3
    }
  }
  attr {
    key: "T"
    value {
      type: DT_INT32
    }
  }
  attr {
    key: "Tidx"
    value {
      type: DT_INT32
    }
  }
}
node {
  name: "linear_to_mel_weight_matrix/frame/Reshape_4"
  op: "Reshape"
  input: "linear_to_mel_weight_matrix/frame/GatherV2"
  input: "linear_to_mel_weight_matrix/frame/concat_2"
  attr {
    key: "T"
    value {
      type: DT_DOUBLE
    }
  }
  attr {
    key: "Tshape"
    value {
      type: DT_INT32
    }
  }
}
node {
  name: "linear_to_mel_weight_matrix/Const_1"
  op: "Const"
  attr {
    key: "dtype"
    value {
      type: DT_INT32
    }
  }
  attr {
    key: "value"
    value {
      tensor {
        dtype: DT_INT32
        tensor_shape {
        }
        int_val: 3
      }
    }
  }
}
node {
  name: "linear_to_mel_weight_matrix/split/split_dim"
  op: "Const"
  attr {
    key: "dtype"
    value {
      type: DT_INT32
    }
  }
  attr {
    key: "value"
    value {
      tensor {
        dtype: DT_INT32
        tensor_shape {
        }
        int_val: 1
      }
    }
  }
}
node {
  name: "linear_to_mel_weight_matrix/split"
  op: "Split"
  input: "linear_to_mel_weight_matrix/split/split_dim"
  input: "linear_to_mel_weight_matrix/frame/Reshape_4"
  attr {
    key: "T"
    value {
      type: DT_DOUBLE
    }
  }
  attr {
    key: "num_split"
    value {
      i: 3
    }
  }
}
node {
  name: "linear_to_mel_weight_matrix/Reshape/shape"
  op: "Const"
  attr {
    key: "dtype"
    value {
      type: DT_INT32
    }
  }
  attr {
    key: "value"
    value {
      tensor {
        dtype: DT_INT32
        tensor_shape {
          dim {
            size: 2
          }
        }
        tensor_content: "\001\000\000\000\024\000\000\000"
      }
    }
  }
}
node {
  name: "linear_to_mel_weight_matrix/Reshape"
  op: "Reshape"
  input: "linear_to_mel_weight_matrix/split"
  input: "linear_to_mel_weight_matrix/Reshape/shape"
  attr {
    key: "T"
    value {
      type: DT_DOUBLE
    }
  }
  attr {
    key: "Tshape"
    value {
      type: DT_INT32
    }
  }
}
node {
  name: "linear_to_mel_weight_matrix/Reshape_1/shape"
  op: "Const"
  attr {
    key: "dtype"
    value {
      type: DT_INT32
    }
  }
  attr {
    key: "value"
    value {
      tensor {
        dtype: DT_INT32
        tensor_shape {
          dim {
            size: 2
          }
        }
        tensor_content: "\001\000\000\000\024\000\000\000"
      }
    }
  }
}
node {
  name: "linear_to_mel_weight_matrix/Reshape_1"
  op: "Reshape"
  input: "linear_to_mel_weight_matrix/split:1"
  input: "linear_to_mel_weight_matrix/Reshape_1/shape"
  attr {
    key: "T"
    value {
      type: DT_DOUBLE
    }
  }
  attr {
    key: "Tshape"
    value {
      type: DT_INT32
    }
  }
}
node {
  name: "linear_to_mel_weight_matrix/Reshape_2/shape"
  op: "Const"
  attr {
    key: "dtype"
    value {
      type: DT_INT32
    }
  }
  attr {
    key: "value"
    value {
      tensor {
        dtype: DT_INT32
        tensor_shape {
          dim {
            size: 2
          }
        }
        tensor_content: "\001\000\000\000\024\000\000\000"
      }
    }
  }
}
node {
  name: "linear_to_mel_weight_matrix/Reshape_2"
  op: "Reshape"
  input: "linear_to_mel_weight_matrix/split:2"
  input: "linear_to_mel_weight_matrix/Reshape_2/shape"
  attr {
    key: "T"
    value {
      type: DT_DOUBLE
    }
  }
  attr {
    key: "Tshape"
    value {
      type: DT_INT32
    }
  }
}
node {
  name: "linear_to_mel_weight_matrix/sub"
  op: "Sub"
  input: "linear_to_mel_weight_matrix/ExpandDims"
  input: "linear_to_mel_weight_matrix/Reshape"
  attr {
    key: "T"
    value {
      type: DT_DOUBLE
    }
  }
}
node {
  name: "linear_to_mel_weight_matrix/sub_1"
  op: "Sub"
  input: "linear_to_mel_weight_matrix/Reshape_1"
  input: "linear_to_mel_weight_matrix/Reshape"
  attr {
    key: "T"
    value {
      type: DT_DOUBLE
    }
  }
}
node {
  name: "linear_to_mel_weight_matrix/truediv_1"
  op: "RealDiv"
  input: "linear_to_mel_weight_matrix/sub"
  input: "linear_to_mel_weight_matrix/sub_1"
  attr {
    key: "T"
    value {
      type: DT_DOUBLE
    }
  }
}
node {
  name: "linear_to_mel_weight_matrix/sub_2"
  op: "Sub"
  input: "linear_to_mel_weight_matrix/Reshape_2"
  input: "linear_to_mel_weight_matrix/ExpandDims"
  attr {
    key: "T"
    value {
      type: DT_DOUBLE
    }
  }
}
node {
  name: "linear_to_mel_weight_matrix/sub_3"
  op: "Sub"
  input: "linear_to_mel_weight_matrix/Reshape_2"
  input: "linear_to_mel_weight_matrix/Reshape_1"
  attr {
    key: "T"
    value {
      type: DT_DOUBLE
    }
  }
}
node {
  name: "linear_to_mel_weight_matrix/truediv_2"
  op: "RealDiv"
  input: "linear_to_mel_weight_matrix/sub_2"
  input: "linear_to_mel_weight_matrix/sub_3"
  attr {
    key: "T"
    value {
      type: DT_DOUBLE
    }
  }
}
node {
  name: "linear_to_mel_weight_matrix/Minimum"
  op: "Minimum"
  input: "linear_to_mel_weight_matrix/truediv_1"
  input: "linear_to_mel_weight_matrix/truediv_2"
  attr {
    key: "T"
    value {
      type: DT_DOUBLE
    }
  }
}
node {
  name: "linear_to_mel_weight_matrix/Maximum"
  op: "Maximum"
  input: "linear_to_mel_weight_matrix/Const"
  input: "linear_to_mel_weight_matrix/Minimum"
  attr {
    key: "T"
    value {
      type: DT_DOUBLE
    }
  }
}
node {
  name: "linear_to_mel_weight_matrix/Pad/paddings"
  op: "Const"
  attr {
    key: "dtype"
    value {
      type: DT_INT32
    }
  }
  attr {
    key: "value"
    value {
      tensor {
        dtype: DT_INT32
        tensor_shape {
          dim {
            size: 2
          }
          dim {
            size: 2
          }
        }
        tensor_content: "\001\000\000\000\000\000\000\000\000\000\000\000\000\000\000\000"
      }
    }
  }
}
node {
  name: "linear_to_mel_weight_matrix/Pad"
  op: "Pad"
  input: "linear_to_mel_weight_matrix/Maximum"
  input: "linear_to_mel_weight_matrix/Pad/paddings"
  attr {
    key: "T"
    value {
      type: DT_DOUBLE
    }
  }
  attr {
    key: "Tpaddings"
    value {
      type: DT_INT32
    }
  }
}
node {
  name: "linear_to_mel_weight_matrix"
  op: "Cast"
  input: "linear_to_mel_weight_matrix/Pad"
  attr {
    key: "DstT"
    value {
      type: DT_FLOAT
    }
  }
  attr {
    key: "SrcT"
    value {
      type: DT_DOUBLE
    }
  }
}
node {
  name: "Tensordot/range/start"
  op: "Const"
  attr {
    key: "dtype"
    value {
      type: DT_INT32
    }
  }
  attr {
    key: "value"
    value {
      tensor {
        dtype: DT_INT32
        tensor_shape {
        }
        int_val: 2
      }
    }
  }
}
node {
  name: "Tensordot/range/limit"
  op: "Const"
  attr {
    key: "dtype"
    value {
      type: DT_INT32
    }
  }
  attr {
    key: "value"
    value {
      tensor {
        dtype: DT_INT32
        tensor_shape {
        }
        int_val: 3
      }
    }
  }
}
node {
  name: "Tensordot/range/delta"
  op: "Const"
  attr {
    key: "dtype"
    value {
      type: DT_INT32
    }
  }
  attr {
    key: "value"
    value {
      tensor {
        dtype: DT_INT32
        tensor_shape {
        }
        int_val: 1
      }
    }
  }
}
node {
  name: "Tensordot/range"
  op: "Range"
  input: "Tensordot/range/start"
  input: "Tensordot/range/limit"
  input: "Tensordot/range/delta"
  attr {
    key: "Tidx"
    value {
      type: DT_INT32
    }
  }
}
node {
  name: "Tensordot/range_1/start"
  op: "Const"
  attr {
    key: "dtype"
    value {
      type: DT_INT32
    }
  }
  attr {
    key: "value"
    value {
      tensor {
        dtype: DT_INT32
        tensor_shape {
        }
        int_val: 0
      }
    }
  }
}
node {
  name: "Tensordot/range_1/limit"
  op: "Const"
  attr {
    key: "dtype"
    value {
      type: DT_INT32
    }
  }
  attr {
    key: "value"
    value {
      tensor {
        dtype: DT_INT32
        tensor_shape {
        }
        int_val: 1
      }
    }
  }
}
node {
  name: "Tensordot/range_1/delta"
  op: "Const"
  attr {
    key: "dtype"
    value {
      type: DT_INT32
    }
  }
  attr {
    key: "value"
    value {
      tensor {
        dtype: DT_INT32
        tensor_shape {
        }
        int_val: 1
      }
    }
  }
}
node {
  name: "Tensordot/range_1"
  op: "Range"
  input: "Tensordot/range_1/start"
  input: "Tensordot/range_1/limit"
  input: "Tensordot/range_1/delta"
  attr {
    key: "Tidx"
    value {
      type: DT_INT32
    }
  }
}
node {
  name: "Tensordot/Shape"
  op: "Shape"
  input: "AudioSpectrogram"
  attr {
    key: "T"
    value {
      type: DT_FLOAT
    }
  }
  attr {
    key: "out_type"
    value {
      type: DT_INT32
    }
  }
}
node {
  name: "Tensordot/Rank"
  op: "Const"
  attr {
    key: "dtype"
    value {
      type: DT_INT32
    }
  }
  attr {
    key: "value"
    value {
      tensor {
        dtype: DT_INT32
        tensor_shape {
        }
        int_val: 3
      }
    }
  }
}
node {
  name: "Tensordot/GreaterEqual/y"
  op: "Const"
  attr {
    key: "dtype"
    value {
      type: DT_INT32
    }
  }
  attr {
    key: "value"
    value {
      tensor {
        dtype: DT_INT32
        tensor_shape {
        }
        int_val: 0
      }
    }
  }
}
node {
  name: "Tensordot/GreaterEqual"
  op: "GreaterEqual"
  input: "Tensordot/range"
  input: "Tensordot/GreaterEqual/y"
  attr {
    key: "T"
    value {
      type: DT_INT32
    }
  }
}
node {
  name: "Tensordot/Cast"
  op: "Cast"
  input: "Tensordot/GreaterEqual"
  attr {
    key: "DstT"
    value {
      type: DT_INT32
    }
  }
  attr {
    key: "SrcT"
    value {
      type: DT_BOOL
    }
  }
}
node {
  name: "Tensordot/mul"
  op: "Mul"
  input: "Tensordot/Cast"
  input: "Tensordot/range"
  attr {
    key: "T"
    value {
      type: DT_INT32
    }
  }
}
node {
  name: "Tensordot/Less/y"
  op: "Const"
  attr {
    key: "dtype"
    value {
      type: DT_INT32
    }
  }
  attr {
    key: "value"
    value {
      tensor {
        dtype: DT_INT32
        tensor_shape {
        }
        int_val: 0
      }
    }
  }
}
node {
  name: "Tensordot/Less"
  op: "Less"
  input: "Tensordot/range"
  input: "Tensordot/Less/y"
  attr {
    key: "T"
    value {
      type: DT_INT32
    }
  }
}
node {
  name: "Tensordot/Cast_1"
  op: "Cast"
  input: "Tensordot/Less"
  attr {
    key: "DstT"
    value {
      type: DT_INT32
    }
  }
  attr {
    key: "SrcT"
    value {
      type: DT_BOOL
    }
  }
}
node {
  name: "Tensordot/add"
  op: "Add"
  input: "Tensordot/range"
  input: "Tensordot/Rank"
  attr {
    key: "T"
    value {
      type: DT_INT32
    }
  }
}
node {
  name: "Tensordot/mul_1"
  op: "Mul"
  input: "Tensordot/Cast_1"
  input: "Tensordot/add"
  attr {
    key: "T"
    value {
      type: DT_INT32
    }
  }
}
node {
  name: "Tensordot/add_1"
  op: "Add"
  input: "Tensordot/mul"
  input: "Tensordot/mul_1"
  attr {
    key: "T"
    value {
      type: DT_INT32
    }
  }
}
node {
  name: "Tensordot/range_2/start"
  op: "Const"
  attr {
    key: "dtype"
    value {
      type: DT_INT32
    }
  }
  attr {
    key: "value"
    value {
      tensor {
        dtype: DT_INT32
        tensor_shape {
        }
        int_val: 0
      }
    }
  }
}
node {
  name: "Tensordot/range_2/delta"
  op: "Const"
  attr {
    key: "dtype"
    value {
      type: DT_INT32
    }
  }
  attr {
    key: "value"
    value {
      tensor {
        dtype: DT_INT32
        tensor_shape {
        }
        int_val: 1
      }
    }
  }
}
node {
  name: "Tensordot/range_2"
  op: "Range"
  input: "Tensordot/range_2/start"
  input: "Tensordot/Rank"
  input: "Tensordot/range_2/delta"
  attr {
    key: "Tidx"
    value {
      type: DT_INT32
    }
  }
}
node {
  name: "Tensordot/ListDiff"
  op: "ListDiff"
  input: "Tensordot/range_2"
  input: "Tensordot/add_1"
  attr {
    key: "T"
    value {
      type: DT_INT32
    }
  }
  attr {
    key: "out_idx"
    value {
      type: DT_INT32
    }
  }
}
node {
  name: "Tensordot/Gather"
  op: "Gather"
  input: "Tensordot/Shape"
  input: "Tensordot/ListDiff"
  attr {
    key: "Tindices"
    value {
      type: DT_INT32
    }
  }
  attr {
    key: "Tparams"
    value {
      type: DT_INT32
    }
  }
  attr {
    key: "validate_indices"
    value {
      b: true
    }
  }
}
node {
  name: "Tensordot/Gather_1"
  op: "Gather"
  input: "Tensordot/Shape"
  input: "Tensordot/add_1"
  attr {
    key: "Tindices"
    value {
      type: DT_INT32
    }
  }
  attr {
    key: "Tparams"
    value {
      type: DT_INT32
    }
  }
  attr {
    key: "validate_indices"
    value {
      b: true
    }
  }
}
node {
  name: "Tensordot/Const"
  op: "Const"
  attr {
    key: "dtype"
    value {
      type: DT_INT32
    }
  }
  attr {
    key: "value"
    value {
      tensor {
        dtype: DT_INT32
        tensor_shape {
          dim {
            size: 1
          }
        }
        int_val: 0
      }
    }
  }
}
node {
  name: "Tensordot/Prod"
  op: "Prod"
  input: "Tensordot/Gather"
  input: "Tensordot/Const"
  attr {
    key: "T"
    value {
      type: DT_INT32
    }
  }
  attr {
    key: "Tidx"
    value {
      type: DT_INT32
    }
  }
  attr {
    key: "keep_dims"
    value {
      b: false
    }
  }
}
node {
  name: "Tensordot/Const_1"
  op: "Const"
  attr {
    key: "dtype"
    value {
      type: DT_INT32
    }
  }
  attr {
    key: "value"
    value {
      tensor {
        dtype: DT_INT32
        tensor_shape {
          dim {
            size: 1
          }
        }
        int_val: 0
      }
    }
  }
}
node {
  name: "Tensordot/Prod_1"
  op: "Prod"
  input: "Tensordot/Gather_1"
  input: "Tensordot/Const_1"
  attr {
    key: "T"
    value {
      type: DT_INT32
    }
  }
  attr {
    key: "Tidx"
    value {
      type: DT_INT32
    }
  }
  attr {
    key: "keep_dims"
    value {
      b: false
    }
  }
}
node {
  name: "Tensordot/concat/axis"
  op: "Const"
  attr {
    key: "dtype"
    value {
      type: DT_INT32
    }
  }
  attr {
    key: "value"
    value {
      tensor {
        dtype: DT_INT32
        tensor_shape {
        }
        int_val: 0
      }
    }
  }
}
node {
  name: "Tensordot/concat"
  op: "ConcatV2"
  input: "Tensordot/Gather_1"
  input: "Tensordot/Gather"
  input: "Tensordot/concat/axis"
  attr {
    key: "N"
    value {
      i: 2
    }
  }
  attr {
    key: "T"
    value {
      type: DT_INT32
    }
  }
  attr {
    key: "Tidx"
    value {
      type: DT_INT32
    }
  }
}
node {
  name: "Tensordot/concat_1/axis"
  op: "Const"
  attr {
    key: "dtype"
    value {
      type: DT_INT32
    }
  }
  attr {
    key: "value"
    value {
      tensor {
        dtype: DT_INT32
        tensor_shape {
        }
        int_val: 0
      }
    }
  }
}
node {
  name: "Tensordot/concat_1"
  op: "ConcatV2"
  input: "Tensordot/ListDiff"
  input: "Tensordot/add_1"
  input: "Tensordot/concat_1/axis"
  attr {
    key: "N"
    value {
      i: 2
    }
  }
  attr {
    key: "T"
    value {
      type: DT_INT32
    }
  }
  attr {
    key: "Tidx"
    value {
      type: DT_INT32
    }
  }
}
node {
  name: "Tensordot/stack"
  op: "Pack"
  input: "Tensordot/Prod"
  input: "Tensordot/Prod_1"
  attr {
    key: "N"
    value {
      i: 2
    }
  }
  attr {
    key: "T"
    value {
      type: DT_INT32
    }
  }
  attr {
    key: "axis"
    value {
      i: 0
    }
  }
}
node {
  name: "Tensordot/transpose"
  op: "Transpose"
  input: "AudioSpectrogram"
  input: "Tensordot/concat_1"
  attr {
    key: "T"
    value {
      type: DT_FLOAT
    }
  }
  attr {
    key: "Tperm"
    value {
      type: DT_INT32
    }
  }
}
node {
  name: "Tensordot/Reshape"
  op: "Reshape"
  input: "Tensordot/transpose"
  input: "Tensordot/stack"
  attr {
    key: "T"
    value {
      type: DT_FLOAT
    }
  }
  attr {
    key: "Tshape"
    value {
      type: DT_INT32
    }
  }
}
node {
  name: "Tensordot/Shape_1"
  op: "Const"
  attr {
    key: "dtype"
    value {
      type: DT_INT32
    }
  }
  attr {
    key: "value"
    value {
      tensor {
        dtype: DT_INT32
        tensor_shape {
          dim {
            size: 2
          }
        }
        tensor_content: "\001\001\000\000\024\000\000\000"
      }
    }
  }
}
node {
  name: "Tensordot/Rank_1"
  op: "Const"
  attr {
    key: "dtype"
    value {
      type: DT_INT32
    }
  }
  attr {
    key: "value"
    value {
      tensor {
        dtype: DT_INT32
        tensor_shape {
        }
        int_val: 2
      }
    }
  }
}
node {
  name: "Tensordot/GreaterEqual_1/y"
  op: "Const"
  attr {
    key: "dtype"
    value {
      type: DT_INT32
    }
  }
  attr {
    key: "value"
    value {
      tensor {
        dtype: DT_INT32
        tensor_shape {
        }
        int_val: 0
      }
    }
  }
}
node {
  name: "Tensordot/GreaterEqual_1"
  op: "GreaterEqual"
  input: "Tensordot/range_1"
  input: "Tensordot/GreaterEqual_1/y"
  attr {
    key: "T"
    value {
      type: DT_INT32
    }
  }
}
node {
  name: "Tensordot/Cast_2"
  op: "Cast"
  input: "Tensordot/GreaterEqual_1"
  attr {
    key: "DstT"
    value {
      type: DT_INT32
    }
  }
  attr {
    key: "SrcT"
    value {
      type: DT_BOOL
    }
  }
}
node {
  name: "Tensordot/mul_2"
  op: "Mul"
  input: "Tensordot/Cast_2"
  input: "Tensordot/range_1"
  attr {
    key: "T"
    value {
      type: DT_INT32
    }
  }
}
node {
  name: "Tensordot/Less_1/y"
  op: "Const"
  attr {
    key: "dtype"
    value {
      type: DT_INT32
    }
  }
  attr {
    key: "value"
    value {
      tensor {
        dtype: DT_INT32
        tensor_shape {
        }
        int_val: 0
      }
    }
  }
}
node {
  name: "Tensordot/Less_1"
  op: "Less"
  input: "Tensordot/range_1"
  input: "Tensordot/Less_1/y"
  attr {
    key: "T"
    value {
      type: DT_INT32
    }
  }
}
node {
  name: "Tensordot/Cast_3"
  op: "Cast"
  input: "Tensordot/Less_1"
  attr {
    key: "DstT"
    value {
      type: DT_INT32
    }
  }
  attr {
    key: "SrcT"
    value {
      type: DT_BOOL
    }
  }
}
node {
  name: "Tensordot/add_2"
  op: "Add"
  input: "Tensordot/range_1"
  input: "Tensordot/Rank_1"
  attr {
    key: "T"
    value {
      type: DT_INT32
    }
  }
}
node {
  name: "Tensordot/mul_3"
  op: "Mul"
  input: "Tensordot/Cast_3"
  input: "Tensordot/add_2"
  attr {
    key: "T"
    value {
      type: DT_INT32
    }
  }
}
node {
  name: "Tensordot/add_3"
  op: "Add"
  input: "Tensordot/mul_2"
  input: "Tensordot/mul_3"
  attr {
    key: "T"
    value {
      type: DT_INT32
    }
  }
}
node {
  name: "Tensordot/range_3/start"
  op: "Const"
  attr {
    key: "dtype"
    value {
      type: DT_INT32
    }
  }
  attr {
    key: "value"
    value {
      tensor {
        dtype: DT_INT32
        tensor_shape {
        }
        int_val: 0
      }
    }
  }
}
node {
  name: "Tensordot/range_3/delta"
  op: "Const"
  attr {
    key: "dtype"
    value {
      type: DT_INT32
    }
  }
  attr {
    key: "value"
    value {
      tensor {
        dtype: DT_INT32
        tensor_shape {
        }
        int_val: 1
      }
    }
  }
}
node {
  name: "Tensordot/range_3"
  op: "Range"
  input: "Tensordot/range_3/start"
  input: "Tensordot/Rank_1"
  input: "Tensordot/range_3/delta"
  attr {
    key: "Tidx"
    value {
      type: DT_INT32
    }
  }
}
node {
  name: "Tensordot/ListDiff_1"
  op: "ListDiff"
  input: "Tensordot/range_3"
  input: "Tensordot/add_3"
  attr {
    key: "T"
    value {
      type: DT_INT32
    }
  }
  attr {
    key: "out_idx"
    value {
      type: DT_INT32
    }
  }
}
node {
  name: "Tensordot/Gather_2"
  op: "Gather"
  input: "Tensordot/Shape_1"
  input: "Tensordot/ListDiff_1"
  attr {
    key: "Tindices"
    value {
      type: DT_INT32
    }
  }
  attr {
    key: "Tparams"
    value {
      type: DT_INT32
    }
  }
  attr {
    key: "validate_indices"
    value {
      b: true
    }
  }
}
node {
  name: "Tensordot/Gather_3"
  op: "Gather"
  input: "Tensordot/Shape_1"
  input: "Tensordot/add_3"
  attr {
    key: "Tindices"
    value {
      type: DT_INT32
    }
  }
  attr {
    key: "Tparams"
    value {
      type: DT_INT32
    }
  }
  attr {
    key: "validate_indices"
    value {
      b: true
    }
  }
}
node {
  name: "Tensordot/Const_2"
  op: "Const"
  attr {
    key: "dtype"
    value {
      type: DT_INT32
    }
  }
  attr {
    key: "value"
    value {
      tensor {
        dtype: DT_INT32
        tensor_shape {
          dim {
            size: 1
          }
        }
        int_val: 0
      }
    }
  }
}
node {
  name: "Tensordot/Prod_2"
  op: "Prod"
  input: "Tensordot/Gather_2"
  input: "Tensordot/Const_2"
  attr {
    key: "T"
    value {
      type: DT_INT32
    }
  }
  attr {
    key: "Tidx"
    value {
      type: DT_INT32
    }
  }
  attr {
    key: "keep_dims"
    value {
      b: false
    }
  }
}
node {
  name: "Tensordot/Const_3"
  op: "Const"
  attr {
    key: "dtype"
    value {
      type: DT_INT32
    }
  }
  attr {
    key: "value"
    value {
      tensor {
        dtype: DT_INT32
        tensor_shape {
          dim {
            size: 1
          }
        }
        int_val: 0
      }
    }
  }
}
node {
  name: "Tensordot/Prod_3"
  op: "Prod"
  input: "Tensordot/Gather_3"
  input: "Tensordot/Const_3"
  attr {
    key: "T"
    value {
      type: DT_INT32
    }
  }
  attr {
    key: "Tidx"
    value {
      type: DT_INT32
    }
  }
  attr {
    key: "keep_dims"
    value {
      b: false
    }
  }
}
node {
  name: "Tensordot/concat_2/axis"
  op: "Const"
  attr {
    key: "dtype"
    value {
      type: DT_INT32
    }
  }
  attr {
    key: "value"
    value {
      tensor {
        dtype: DT_INT32
        tensor_shape {
        }
        int_val: 0
      }
    }
  }
}
node {
  name: "Tensordot/concat_2"
  op: "ConcatV2"
  input: "Tensordot/Gather_3"
  input: "Tensordot/Gather_2"
  input: "Tensordot/concat_2/axis"
  attr {
    key: "N"
    value {
      i: 2
    }
  }
  attr {
    key: "T"
    value {
      type: DT_INT32
    }
  }
  attr {
    key: "Tidx"
    value {
      type: DT_INT32
    }
  }
}
node {
  name: "Tensordot/concat_3/axis"
  op: "Const"
  attr {
    key: "dtype"
    value {
      type: DT_INT32
    }
  }
  attr {
    key: "value"
    value {
      tensor {
        dtype: DT_INT32
        tensor_shape {
        }
        int_val: 0
      }
    }
  }
}
node {
  name: "Tensordot/concat_3"
  op: "ConcatV2"
  input: "Tensordot/add_3"
  input: "Tensordot/ListDiff_1"
  input: "Tensordot/concat_3/axis"
  attr {
    key: "N"
    value {
      i: 2
    }
  }
  attr {
    key: "T"
    value {
      type: DT_INT32
    }
  }
  attr {
    key: "Tidx"
    value {
      type: DT_INT32
    }
  }
}
node {
  name: "Tensordot/stack_1"
  op: "Pack"
  input: "Tensordot/Prod_3"
  input: "Tensordot/Prod_2"
  attr {
    key: "N"
    value {
      i: 2
    }
  }
  attr {
    key: "T"
    value {
      type: DT_INT32
    }
  }
  attr {
    key: "axis"
    value {
      i: 0
    }
  }
}
node {
  name: "Tensordot/transpose_1"
  op: "Transpose"
  input: "linear_to_mel_weight_matrix"
  input: "Tensordot/concat_3"
  attr {
    key: "T"
    value {
      type: DT_FLOAT
    }
  }
  attr {
    key: "Tperm"
    value {
      type: DT_INT32
    }
  }
}
node {
  name: "Tensordot/Reshape_1"
  op: "Reshape"
  input: "Tensordot/transpose_1"
  input: "Tensordot/stack_1"
  attr {
    key: "T"
    value {
      type: DT_FLOAT
    }
  }
  attr {
    key: "Tshape"
    value {
      type: DT_INT32
    }
  }
}
node {
  name: "Tensordot/MatMul"
  op: "MatMul"
  input: "Tensordot/Reshape"
  input: "Tensordot/Reshape_1"
  attr {
    key: "T"
    value {
      type: DT_FLOAT
    }
  }
  attr {
    key: "transpose_a"
    value {
      b: false
    }
  }
  attr {
    key: "transpose_b"
    value {
      b: false
    }
  }
}
node {
  name: "Tensordot/concat_4/axis"
  op: "Const"
  attr {
    key: "dtype"
    value {
      type: DT_INT32
    }
  }
  attr {
    key: "value"
    value {
      tensor {
        dtype: DT_INT32
        tensor_shape {
        }
        int_val: 0
      }
    }
  }
}
node {
  name: "Tensordot/concat_4"
  op: "ConcatV2"
  input: "Tensordot/Gather"
  input: "Tensordot/Gather_2"
  input: "Tensordot/concat_4/axis"
  attr {
    key: "N"
    value {
      i: 2
    }
  }
  attr {
    key: "T"
    value {
      type: DT_INT32
    }
  }
  attr {
    key: "Tidx"
    value {
      type: DT_INT32
    }
  }
}
node {
  name: "Tensordot"
  op: "Reshape"
  input: "Tensordot/MatMul"
  input: "Tensordot/concat_4"
  attr {
    key: "T"
    value {
      type: DT_FLOAT
    }
  }
  attr {
    key: "Tshape"
    value {
      type: DT_INT32
    }
  }
}
node {
  name: "add/y"
  op: "Const"
  attr {
    key: "dtype"
    value {
      type: DT_FLOAT
    }
  }
  attr {
    key: "value"
    value {
      tensor {
        dtype: DT_FLOAT
        tensor_shape {
        }
        float_val: 9.999999974752427e-07
      }
    }
  }
}
node {
  name: "add"
  op: "Add"
  input: "Tensordot"
  input: "add/y"
  attr {
    key: "T"
    value {
      type: DT_FLOAT
    }
  }
}
node {
  name: "Log"
  op: "Log"
  input: "add"
  attr {
    key: "T"
    value {
      type: DT_FLOAT
    }
  }
}
node {
  name: "fingerprint_input"
  op: "Placeholder"
  attr {
    key: "dtype"
    value {
      type: DT_FLOAT
    }
  }
  attr {
    key: "shape"
    value {
      shape {
        dim {
          size: -1
        }
        dim {
          size: 1000
        }
      }
    }
  }
}
node {
  name: "dropout_prob"
  op: "Placeholder"
  attr {
    key: "dtype"
    value {
      type: DT_FLOAT
    }
  }
  attr {
    key: "shape"
    value {
      shape {
        unknown_rank: true
      }
    }
  }
}
node {
  name: "Reshape/shape"
  op: "Const"
  attr {
    key: "dtype"
    value {
      type: DT_INT32
    }
  }
  attr {
    key: "value"
    value {
      tensor {
        dtype: DT_INT32
        tensor_shape {
          dim {
            size: 4
          }
        }
        tensor_content: "\377\377\377\3772\000\000\000\024\000\000\000\001\000\000\000"
      }
    }
  }
}
node {
  name: "Reshape"
  op: "Reshape"
  input: "fingerprint_input"
  input: "Reshape/shape"
  attr {
    key: "T"
    value {
      type: DT_FLOAT
    }
  }
  attr {
    key: "Tshape"
    value {
      type: DT_INT32
    }
  }
}
node {
  name: "DS-CNN/conv_1/weights/Initializer/random_uniform/shape"
  op: "Const"
  attr {
    key: "_class"
    value {
      list {
        s: "loc:@DS-CNN/conv_1/weights"
      }
    }
  }
  attr {
    key: "dtype"
    value {
      type: DT_INT32
    }
  }
  attr {
    key: "value"
    value {
      tensor {
        dtype: DT_INT32
        tensor_shape {
          dim {
            size: 4
          }
        }
        tensor_content: "\n\000\000\000\004\000\000\000\001\000\000\000L\000\000\000"
      }
    }
  }
}
node {
  name: "DS-CNN/conv_1/weights/Initializer/random_uniform/min"
  op: "Const"
  attr {
    key: "_class"
    value {
      list {
        s: "loc:@DS-CNN/conv_1/weights"
      }
    }
  }
  attr {
    key: "dtype"
    value {
      type: DT_FLOAT
    }
  }
  attr {
    key: "value"
    value {
      tensor {
        dtype: DT_FLOAT
        tensor_shape {
        }
        float_val: -0.044136740267276764
      }
    }
  }
}
node {
  name: "DS-CNN/conv_1/weights/Initializer/random_uniform/max"
  op: "Const"
  attr {
    key: "_class"
    value {
      list {
        s: "loc:@DS-CNN/conv_1/weights"
      }
    }
  }
  attr {
    key: "dtype"
    value {
      type: DT_FLOAT
    }
  }
  attr {
    key: "value"
    value {
      tensor {
        dtype: DT_FLOAT
        tensor_shape {
        }
        float_val: 0.044136740267276764
      }
    }
  }
}
node {
  name: "DS-CNN/conv_1/weights/Initializer/random_uniform/RandomUniform"
  op: "RandomUniform"
  input: "DS-CNN/conv_1/weights/Initializer/random_uniform/shape"
  attr {
    key: "T"
    value {
      type: DT_INT32
    }
  }
  attr {
    key: "_class"
    value {
      list {
        s: "loc:@DS-CNN/conv_1/weights"
      }
    }
  }
  attr {
    key: "dtype"
    value {
      type: DT_FLOAT
    }
  }
  attr {
    key: "seed"
    value {
      i: 0
    }
  }
  attr {
    key: "seed2"
    value {
      i: 0
    }
  }
}
node {
  name: "DS-CNN/conv_1/weights/Initializer/random_uniform/sub"
  op: "Sub"
  input: "DS-CNN/conv_1/weights/Initializer/random_uniform/max"
  input: "DS-CNN/conv_1/weights/Initializer/random_uniform/min"
  attr {
    key: "T"
    value {
      type: DT_FLOAT
    }
  }
  attr {
    key: "_class"
    value {
      list {
        s: "loc:@DS-CNN/conv_1/weights"
      }
    }
  }
}
node {
  name: "DS-CNN/conv_1/weights/Initializer/random_uniform/mul"
  op: "Mul"
  input: "DS-CNN/conv_1/weights/Initializer/random_uniform/RandomUniform"
  input: "DS-CNN/conv_1/weights/Initializer/random_uniform/sub"
  attr {
    key: "T"
    value {
      type: DT_FLOAT
    }
  }
  attr {
    key: "_class"
    value {
      list {
        s: "loc:@DS-CNN/conv_1/weights"
      }
    }
  }
}
node {
  name: "DS-CNN/conv_1/weights/Initializer/random_uniform"
  op: "Add"
  input: "DS-CNN/conv_1/weights/Initializer/random_uniform/mul"
  input: "DS-CNN/conv_1/weights/Initializer/random_uniform/min"
  attr {
    key: "T"
    value {
      type: DT_FLOAT
    }
  }
  attr {
    key: "_class"
    value {
      list {
        s: "loc:@DS-CNN/conv_1/weights"
      }
    }
  }
}
node {
  name: "DS-CNN/conv_1/weights"
  op: "VariableV2"
  attr {
    key: "_class"
    value {
      list {
        s: "loc:@DS-CNN/conv_1/weights"
      }
    }
  }
  attr {
    key: "container"
    value {
      s: ""
    }
  }
  attr {
    key: "dtype"
    value {
      type: DT_FLOAT
    }
  }
  attr {
    key: "shape"
    value {
      shape {
        dim {
          size: 10
        }
        dim {
          size: 4
        }
        dim {
          size: 1
        }
        dim {
          size: 76
        }
      }
    }
  }
  attr {
    key: "shared_name"
    value {
      s: ""
    }
  }
}
node {
  name: "DS-CNN/conv_1/weights/Assign"
  op: "Assign"
  input: "DS-CNN/conv_1/weights"
  input: "DS-CNN/conv_1/weights/Initializer/random_uniform"
  attr {
    key: "T"
    value {
      type: DT_FLOAT
    }
  }
  attr {
    key: "_class"
    value {
      list {
        s: "loc:@DS-CNN/conv_1/weights"
      }
    }
  }
  attr {
    key: "use_locking"
    value {
      b: true
    }
  }
  attr {
    key: "validate_shape"
    value {
      b: true
    }
  }
}
node {
  name: "DS-CNN/conv_1/weights/read"
  op: "Identity"
  input: "DS-CNN/conv_1/weights"
  attr {
    key: "T"
    value {
      type: DT_FLOAT
    }
  }
  attr {
    key: "_class"
    value {
      list {
        s: "loc:@DS-CNN/conv_1/weights"
      }
    }
  }
}
node {
  name: "DS-CNN/conv_1/biases/Initializer/zeros"
  op: "Const"
  attr {
    key: "_class"
    value {
      list {
        s: "loc:@DS-CNN/conv_1/biases"
      }
    }
  }
  attr {
    key: "dtype"
    value {
      type: DT_FLOAT
    }
  }
  attr {
    key: "value"
    value {
      tensor {
        dtype: DT_FLOAT
        tensor_shape {
          dim {
            size: 76
          }
        }
        float_val: 0.0
      }
    }
  }
}
node {
  name: "DS-CNN/conv_1/biases"
  op: "VariableV2"
  attr {
    key: "_class"
    value {
      list {
        s: "loc:@DS-CNN/conv_1/biases"
      }
    }
  }
  attr {
    key: "container"
    value {
      s: ""
    }
  }
  attr {
    key: "dtype"
    value {
      type: DT_FLOAT
    }
  }
  attr {
    key: "shape"
    value {
      shape {
        dim {
          size: 76
        }
      }
    }
  }
  attr {
    key: "shared_name"
    value {
      s: ""
    }
  }
}
node {
  name: "DS-CNN/conv_1/biases/Assign"
  op: "Assign"
  input: "DS-CNN/conv_1/biases"
  input: "DS-CNN/conv_1/biases/Initializer/zeros"
  attr {
    key: "T"
    value {
      type: DT_FLOAT
    }
  }
  attr {
    key: "_class"
    value {
      list {
        s: "loc:@DS-CNN/conv_1/biases"
      }
    }
  }
  attr {
    key: "use_locking"
    value {
      b: true
    }
  }
  attr {
    key: "validate_shape"
    value {
      b: true
    }
  }
}
node {
  name: "DS-CNN/conv_1/biases/read"
  op: "Identity"
  input: "DS-CNN/conv_1/biases"
  attr {
    key: "T"
    value {
      type: DT_FLOAT
    }
  }
  attr {
    key: "_class"
    value {
      list {
        s: "loc:@DS-CNN/conv_1/biases"
      }
    }
  }
}
node {
  name: "DS-CNN/conv_1/dilation_rate"
  op: "Const"
  attr {
    key: "dtype"
    value {
      type: DT_INT32
    }
  }
  attr {
    key: "value"
    value {
      tensor {
        dtype: DT_INT32
        tensor_shape {
          dim {
            size: 2
          }
        }
        tensor_content: "\001\000\000\000\001\000\000\000"
      }
    }
  }
}
node {
  name: "DS-CNN/conv_1/Conv2D"
  op: "Conv2D"
  input: "Reshape"
  input: "DS-CNN/conv_1/weights/read"
  attr {
    key: "T"
    value {
      type: DT_FLOAT
    }
  }
  attr {
    key: "data_format"
    value {
      s: "NHWC"
    }
  }
  attr {
    key: "dilations"
    value {
      list {
        i: 1
        i: 1
        i: 1
        i: 1
      }
    }
  }
  attr {
    key: "padding"
    value {
      s: "SAME"
    }
  }
  attr {
    key: "strides"
    value {
      list {
        i: 1
        i: 2
        i: 1
        i: 1
      }
    }
  }
  attr {
    key: "use_cudnn_on_gpu"
    value {
      b: true
    }
  }
}
node {
  name: "DS-CNN/conv_1/BiasAdd"
  op: "BiasAdd"
  input: "DS-CNN/conv_1/Conv2D"
  input: "DS-CNN/conv_1/biases/read"
  attr {
    key: "T"
    value {
      type: DT_FLOAT
    }
  }
  attr {
    key: "data_format"
    value {
      s: "NHWC"
    }
  }
}
node {
  name: "DS-CNN/conv_1/batch_norm/beta/Initializer/zeros"
  op: "Const"
  attr {
    key: "_class"
    value {
      list {
        s: "loc:@DS-CNN/conv_1/batch_norm/beta"
      }
    }
  }
  attr {
    key: "dtype"
    value {
      type: DT_FLOAT
    }
  }
  attr {
    key: "value"
    value {
      tensor {
        dtype: DT_FLOAT
        tensor_shape {
          dim {
            size: 76
          }
        }
        float_val: 0.0
      }
    }
  }
}
node {
  name: "DS-CNN/conv_1/batch_norm/beta"
  op: "VariableV2"
  attr {
    key: "_class"
    value {
      list {
        s: "loc:@DS-CNN/conv_1/batch_norm/beta"
      }
    }
  }
  attr {
    key: "container"
    value {
      s: ""
    }
  }
  attr {
    key: "dtype"
    value {
      type: DT_FLOAT
    }
  }
  attr {
    key: "shape"
    value {
      shape {
        dim {
          size: 76
        }
      }
    }
  }
  attr {
    key: "shared_name"
    value {
      s: ""
    }
  }
}
node {
  name: "DS-CNN/conv_1/batch_norm/beta/Assign"
  op: "Assign"
  input: "DS-CNN/conv_1/batch_norm/beta"
  input: "DS-CNN/conv_1/batch_norm/beta/Initializer/zeros"
  attr {
    key: "T"
    value {
      type: DT_FLOAT
    }
  }
  attr {
    key: "_class"
    value {
      list {
        s: "loc:@DS-CNN/conv_1/batch_norm/beta"
      }
    }
  }
  attr {
    key: "use_locking"
    value {
      b: true
    }
  }
  attr {
    key: "validate_shape"
    value {
      b: true
    }
  }
}
node {
  name: "DS-CNN/conv_1/batch_norm/beta/read"
  op: "Identity"
  input: "DS-CNN/conv_1/batch_norm/beta"
  attr {
    key: "T"
    value {
      type: DT_FLOAT
    }
  }
  attr {
    key: "_class"
    value {
      list {
        s: "loc:@DS-CNN/conv_1/batch_norm/beta"
      }
    }
  }
}
node {
  name: "DS-CNN/conv_1/batch_norm/Const"
  op: "Const"
  attr {
    key: "dtype"
    value {
      type: DT_FLOAT
    }
  }
  attr {
    key: "value"
    value {
      tensor {
        dtype: DT_FLOAT
        tensor_shape {
          dim {
            size: 76
          }
        }
        float_val: 1.0
      }
    }
  }
}
node {
  name: "DS-CNN/conv_1/batch_norm/moving_mean/Initializer/zeros"
  op: "Const"
  attr {
    key: "_class"
    value {
      list {
        s: "loc:@DS-CNN/conv_1/batch_norm/moving_mean"
      }
    }
  }
  attr {
    key: "dtype"
    value {
      type: DT_FLOAT
    }
  }
  attr {
    key: "value"
    value {
      tensor {
        dtype: DT_FLOAT
        tensor_shape {
          dim {
            size: 76
          }
        }
        float_val: 0.0
      }
    }
  }
}
node {
  name: "DS-CNN/conv_1/batch_norm/moving_mean"
  op: "VariableV2"
  attr {
    key: "_class"
    value {
      list {
        s: "loc:@DS-CNN/conv_1/batch_norm/moving_mean"
      }
    }
  }
  attr {
    key: "container"
    value {
      s: ""
    }
  }
  attr {
    key: "dtype"
    value {
      type: DT_FLOAT
    }
  }
  attr {
    key: "shape"
    value {
      shape {
        dim {
          size: 76
        }
      }
    }
  }
  attr {
    key: "shared_name"
    value {
      s: ""
    }
  }
}
node {
  name: "DS-CNN/conv_1/batch_norm/moving_mean/Assign"
  op: "Assign"
  input: "DS-CNN/conv_1/batch_norm/moving_mean"
  input: "DS-CNN/conv_1/batch_norm/moving_mean/Initializer/zeros"
  attr {
    key: "T"
    value {
      type: DT_FLOAT
    }
  }
  attr {
    key: "_class"
    value {
      list {
        s: "loc:@DS-CNN/conv_1/batch_norm/moving_mean"
      }
    }
  }
  attr {
    key: "use_locking"
    value {
      b: true
    }
  }
  attr {
    key: "validate_shape"
    value {
      b: true
    }
  }
}
node {
  name: "DS-CNN/conv_1/batch_norm/moving_mean/read"
  op: "Identity"
  input: "DS-CNN/conv_1/batch_norm/moving_mean"
  attr {
    key: "T"
    value {
      type: DT_FLOAT
    }
  }
  attr {
    key: "_class"
    value {
      list {
        s: "loc:@DS-CNN/conv_1/batch_norm/moving_mean"
      }
    }
  }
}
node {
  name: "DS-CNN/conv_1/batch_norm/moving_variance/Initializer/ones"
  op: "Const"
  attr {
    key: "_class"
    value {
      list {
        s: "loc:@DS-CNN/conv_1/batch_norm/moving_variance"
      }
    }
  }
  attr {
    key: "dtype"
    value {
      type: DT_FLOAT
    }
  }
  attr {
    key: "value"
    value {
      tensor {
        dtype: DT_FLOAT
        tensor_shape {
          dim {
            size: 76
          }
        }
        float_val: 1.0
      }
    }
  }
}
node {
  name: "DS-CNN/conv_1/batch_norm/moving_variance"
  op: "VariableV2"
  attr {
    key: "_class"
    value {
      list {
        s: "loc:@DS-CNN/conv_1/batch_norm/moving_variance"
      }
    }
  }
  attr {
    key: "container"
    value {
      s: ""
    }
  }
  attr {
    key: "dtype"
    value {
      type: DT_FLOAT
    }
  }
  attr {
    key: "shape"
    value {
      shape {
        dim {
          size: 76
        }
      }
    }
  }
  attr {
    key: "shared_name"
    value {
      s: ""
    }
  }
}
node {
  name: "DS-CNN/conv_1/batch_norm/moving_variance/Assign"
  op: "Assign"
  input: "DS-CNN/conv_1/batch_norm/moving_variance"
  input: "DS-CNN/conv_1/batch_norm/moving_variance/Initializer/ones"
  attr {
    key: "T"
    value {
      type: DT_FLOAT
    }
  }
  attr {
    key: "_class"
    value {
      list {
        s: "loc:@DS-CNN/conv_1/batch_norm/moving_variance"
      }
    }
  }
  attr {
    key: "use_locking"
    value {
      b: true
    }
  }
  attr {
    key: "validate_shape"
    value {
      b: true
    }
  }
}
node {
  name: "DS-CNN/conv_1/batch_norm/moving_variance/read"
  op: "Identity"
  input: "DS-CNN/conv_1/batch_norm/moving_variance"
  attr {
    key: "T"
    value {
      type: DT_FLOAT
    }
  }
  attr {
    key: "_class"
    value {
      list {
        s: "loc:@DS-CNN/conv_1/batch_norm/moving_variance"
      }
    }
  }
}
node {
  name: "DS-CNN/conv_1/batch_norm/Const_1"
  op: "Const"
  attr {
    key: "dtype"
    value {
      type: DT_FLOAT
    }
  }
  attr {
    key: "value"
    value {
      tensor {
        dtype: DT_FLOAT
        tensor_shape {
          dim {
          }
        }
      }
    }
  }
}
node {
  name: "DS-CNN/conv_1/batch_norm/Const_2"
  op: "Const"
  attr {
    key: "dtype"
    value {
      type: DT_FLOAT
    }
  }
  attr {
    key: "value"
    value {
      tensor {
        dtype: DT_FLOAT
        tensor_shape {
          dim {
          }
        }
      }
    }
  }
}
node {
  name: "DS-CNN/conv_1/batch_norm/FusedBatchNorm"
  op: "FusedBatchNorm"
  input: "DS-CNN/conv_1/BiasAdd"
  input: "DS-CNN/conv_1/batch_norm/Const"
  input: "DS-CNN/conv_1/batch_norm/beta/read"
  input: "DS-CNN/conv_1/batch_norm/Const_1"
  input: "DS-CNN/conv_1/batch_norm/Const_2"
  attr {
    key: "T"
    value {
      type: DT_FLOAT
    }
  }
  attr {
    key: "data_format"
    value {
      s: "NHWC"
    }
  }
  attr {
    key: "epsilon"
    value {
      f: 0.001
    }
  }
  attr {
    key: "is_training"
    value {
      b: true
    }
  }
}
node {
  name: "DS-CNN/conv_1/batch_norm/AssignMovingAvg/decay"
  op: "Const"
  attr {
    key: "_class"
    value {
      list {
        s: "loc:@DS-CNN/conv_1/batch_norm/moving_mean"
      }
    }
  }
  attr {
    key: "dtype"
    value {
      type: DT_FLOAT
    }
  }
  attr {
    key: "value"
    value {
      tensor {
        dtype: DT_FLOAT
        tensor_shape {
        }
        float_val: 0.03999999910593033
      }
    }
  }
}
node {
  name: "DS-CNN/conv_1/batch_norm/AssignMovingAvg/sub"
  op: "Sub"
  input: "DS-CNN/conv_1/batch_norm/moving_mean/read"
  input: "DS-CNN/conv_1/batch_norm/FusedBatchNorm:1"
  attr {
    key: "T"
    value {
      type: DT_FLOAT
    }
  }
  attr {
    key: "_class"
    value {
      list {
        s: "loc:@DS-CNN/conv_1/batch_norm/moving_mean"
      }
    }
  }
}
node {
  name: "DS-CNN/conv_1/batch_norm/AssignMovingAvg/mul"
  op: "Mul"
  input: "DS-CNN/conv_1/batch_norm/AssignMovingAvg/sub"
  input: "DS-CNN/conv_1/batch_norm/AssignMovingAvg/decay"
  attr {
    key: "T"
    value {
      type: DT_FLOAT
    }
  }
  attr {
    key: "_class"
    value {
      list {
        s: "loc:@DS-CNN/conv_1/batch_norm/moving_mean"
      }
    }
  }
}
node {
  name: "DS-CNN/conv_1/batch_norm/AssignMovingAvg"
  op: "AssignSub"
  input: "DS-CNN/conv_1/batch_norm/moving_mean"
  input: "DS-CNN/conv_1/batch_norm/AssignMovingAvg/mul"
  attr {
    key: "T"
    value {
      type: DT_FLOAT
    }
  }
  attr {
    key: "_class"
    value {
      list {
        s: "loc:@DS-CNN/conv_1/batch_norm/moving_mean"
      }
    }
  }
  attr {
    key: "use_locking"
    value {
      b: false
    }
  }
}
node {
  name: "DS-CNN/conv_1/batch_norm/AssignMovingAvg_1/decay"
  op: "Const"
  attr {
    key: "_class"
    value {
      list {
        s: "loc:@DS-CNN/conv_1/batch_norm/moving_variance"
      }
    }
  }
  attr {
    key: "dtype"
    value {
      type: DT_FLOAT
    }
  }
  attr {
    key: "value"
    value {
      tensor {
        dtype: DT_FLOAT
        tensor_shape {
        }
        float_val: 0.03999999910593033
      }
    }
  }
}
node {
  name: "DS-CNN/conv_1/batch_norm/AssignMovingAvg_1/sub"
  op: "Sub"
  input: "DS-CNN/conv_1/batch_norm/moving_variance/read"
  input: "DS-CNN/conv_1/batch_norm/FusedBatchNorm:2"
  attr {
    key: "T"
    value {
      type: DT_FLOAT
    }
  }
  attr {
    key: "_class"
    value {
      list {
        s: "loc:@DS-CNN/conv_1/batch_norm/moving_variance"
      }
    }
  }
}
node {
  name: "DS-CNN/conv_1/batch_norm/AssignMovingAvg_1/mul"
  op: "Mul"
  input: "DS-CNN/conv_1/batch_norm/AssignMovingAvg_1/sub"
  input: "DS-CNN/conv_1/batch_norm/AssignMovingAvg_1/decay"
  attr {
    key: "T"
    value {
      type: DT_FLOAT
    }
  }
  attr {
    key: "_class"
    value {
      list {
        s: "loc:@DS-CNN/conv_1/batch_norm/moving_variance"
      }
    }
  }
}
node {
  name: "DS-CNN/conv_1/batch_norm/AssignMovingAvg_1"
  op: "AssignSub"
  input: "DS-CNN/conv_1/batch_norm/moving_variance"
  input: "DS-CNN/conv_1/batch_norm/AssignMovingAvg_1/mul"
  attr {
    key: "T"
    value {
      type: DT_FLOAT
    }
  }
  attr {
    key: "_class"
    value {
      list {
        s: "loc:@DS-CNN/conv_1/batch_norm/moving_variance"
      }
    }
  }
  attr {
    key: "use_locking"
    value {
      b: false
    }
  }
}
node {
  name: "DS-CNN/conv_1/batch_norm/Identity"
  op: "Identity"
  input: "DS-CNN/conv_1/batch_norm/FusedBatchNorm"
  input: "^DS-CNN/conv_1/batch_norm/AssignMovingAvg"
  input: "^DS-CNN/conv_1/batch_norm/AssignMovingAvg_1"
  attr {
    key: "T"
    value {
      type: DT_FLOAT
    }
  }
}
node {
  name: "DS-CNN/conv_1/batch_norm/Relu"
  op: "Relu"
  input: "DS-CNN/conv_1/batch_norm/Identity"
  attr {
    key: "T"
    value {
      type: DT_FLOAT
    }
  }
}
node {
  name: "DS-CNN/conv_ds_1/depthwise_conv/depthwise_weights/Initializer/random_uniform/shape"
  op: "Const"
  attr {
    key: "_class"
    value {
      list {
        s: "loc:@DS-CNN/conv_ds_1/depthwise_conv/depthwise_weights"
      }
    }
  }
  attr {
    key: "dtype"
    value {
      type: DT_INT32
    }
  }
  attr {
    key: "value"
    value {
      tensor {
        dtype: DT_INT32
        tensor_shape {
          dim {
            size: 4
          }
        }
        tensor_content: "\003\000\000\000\003\000\000\000L\000\000\000\001\000\000\000"
      }
    }
  }
}
node {
  name: "DS-CNN/conv_ds_1/depthwise_conv/depthwise_weights/Initializer/random_uniform/min"
  op: "Const"
  attr {
    key: "_class"
    value {
      list {
        s: "loc:@DS-CNN/conv_ds_1/depthwise_conv/depthwise_weights"
      }
    }
  }
  attr {
    key: "dtype"
    value {
      type: DT_FLOAT
    }
  }
  attr {
    key: "value"
    value {
      tensor {
        dtype: DT_FLOAT
        tensor_shape {
        }
        float_val: -0.09304842352867126
      }
    }
  }
}
node {
  name: "DS-CNN/conv_ds_1/depthwise_conv/depthwise_weights/Initializer/random_uniform/max"
  op: "Const"
  attr {
    key: "_class"
    value {
      list {
        s: "loc:@DS-CNN/conv_ds_1/depthwise_conv/depthwise_weights"
      }
    }
  }
  attr {
    key: "dtype"
    value {
      type: DT_FLOAT
    }
  }
  attr {
    key: "value"
    value {
      tensor {
        dtype: DT_FLOAT
        tensor_shape {
        }
        float_val: 0.09304842352867126
      }
    }
  }
}
node {
  name: "DS-CNN/conv_ds_1/depthwise_conv/depthwise_weights/Initializer/random_uniform/RandomUniform"
  op: "RandomUniform"
  input: "DS-CNN/conv_ds_1/depthwise_conv/depthwise_weights/Initializer/random_uniform/shape"
  attr {
    key: "T"
    value {
      type: DT_INT32
    }
  }
  attr {
    key: "_class"
    value {
      list {
        s: "loc:@DS-CNN/conv_ds_1/depthwise_conv/depthwise_weights"
      }
    }
  }
  attr {
    key: "dtype"
    value {
      type: DT_FLOAT
    }
  }
  attr {
    key: "seed"
    value {
      i: 0
    }
  }
  attr {
    key: "seed2"
    value {
      i: 0
    }
  }
}
node {
  name: "DS-CNN/conv_ds_1/depthwise_conv/depthwise_weights/Initializer/random_uniform/sub"
  op: "Sub"
  input: "DS-CNN/conv_ds_1/depthwise_conv/depthwise_weights/Initializer/random_uniform/max"
  input: "DS-CNN/conv_ds_1/depthwise_conv/depthwise_weights/Initializer/random_uniform/min"
  attr {
    key: "T"
    value {
      type: DT_FLOAT
    }
  }
  attr {
    key: "_class"
    value {
      list {
        s: "loc:@DS-CNN/conv_ds_1/depthwise_conv/depthwise_weights"
      }
    }
  }
}
node {
  name: "DS-CNN/conv_ds_1/depthwise_conv/depthwise_weights/Initializer/random_uniform/mul"
  op: "Mul"
  input: "DS-CNN/conv_ds_1/depthwise_conv/depthwise_weights/Initializer/random_uniform/RandomUniform"
  input: "DS-CNN/conv_ds_1/depthwise_conv/depthwise_weights/Initializer/random_uniform/sub"
  attr {
    key: "T"
    value {
      type: DT_FLOAT
    }
  }
  attr {
    key: "_class"
    value {
      list {
        s: "loc:@DS-CNN/conv_ds_1/depthwise_conv/depthwise_weights"
      }
    }
  }
}
node {
  name: "DS-CNN/conv_ds_1/depthwise_conv/depthwise_weights/Initializer/random_uniform"
  op: "Add"
  input: "DS-CNN/conv_ds_1/depthwise_conv/depthwise_weights/Initializer/random_uniform/mul"
  input: "DS-CNN/conv_ds_1/depthwise_conv/depthwise_weights/Initializer/random_uniform/min"
  attr {
    key: "T"
    value {
      type: DT_FLOAT
    }
  }
  attr {
    key: "_class"
    value {
      list {
        s: "loc:@DS-CNN/conv_ds_1/depthwise_conv/depthwise_weights"
      }
    }
  }
}
node {
  name: "DS-CNN/conv_ds_1/depthwise_conv/depthwise_weights"
  op: "VariableV2"
  attr {
    key: "_class"
    value {
      list {
        s: "loc:@DS-CNN/conv_ds_1/depthwise_conv/depthwise_weights"
      }
    }
  }
  attr {
    key: "container"
    value {
      s: ""
    }
  }
  attr {
    key: "dtype"
    value {
      type: DT_FLOAT
    }
  }
  attr {
    key: "shape"
    value {
      shape {
        dim {
          size: 3
        }
        dim {
          size: 3
        }
        dim {
          size: 76
        }
        dim {
          size: 1
        }
      }
    }
  }
  attr {
    key: "shared_name"
    value {
      s: ""
    }
  }
}
node {
  name: "DS-CNN/conv_ds_1/depthwise_conv/depthwise_weights/Assign"
  op: "Assign"
  input: "DS-CNN/conv_ds_1/depthwise_conv/depthwise_weights"
  input: "DS-CNN/conv_ds_1/depthwise_conv/depthwise_weights/Initializer/random_uniform"
  attr {
    key: "T"
    value {
      type: DT_FLOAT
    }
  }
  attr {
    key: "_class"
    value {
      list {
        s: "loc:@DS-CNN/conv_ds_1/depthwise_conv/depthwise_weights"
      }
    }
  }
  attr {
    key: "use_locking"
    value {
      b: true
    }
  }
  attr {
    key: "validate_shape"
    value {
      b: true
    }
  }
}
node {
  name: "DS-CNN/conv_ds_1/depthwise_conv/depthwise_weights/read"
  op: "Identity"
  input: "DS-CNN/conv_ds_1/depthwise_conv/depthwise_weights"
  attr {
    key: "T"
    value {
      type: DT_FLOAT
    }
  }
  attr {
    key: "_class"
    value {
      list {
        s: "loc:@DS-CNN/conv_ds_1/depthwise_conv/depthwise_weights"
      }
    }
  }
}
node {
  name: "DS-CNN/conv_ds_1/depthwise_conv/depthwise/Shape"
  op: "Const"
  attr {
    key: "dtype"
    value {
      type: DT_INT32
    }
  }
  attr {
    key: "value"
    value {
      tensor {
        dtype: DT_INT32
        tensor_shape {
          dim {
            size: 4
          }
        }
        tensor_content: "\003\000\000\000\003\000\000\000L\000\000\000\001\000\000\000"
      }
    }
  }
}
node {
  name: "DS-CNN/conv_ds_1/depthwise_conv/depthwise/dilation_rate"
  op: "Const"
  attr {
    key: "dtype"
    value {
      type: DT_INT32
    }
  }
  attr {
    key: "value"
    value {
      tensor {
        dtype: DT_INT32
        tensor_shape {
          dim {
            size: 2
          }
        }
        tensor_content: "\001\000\000\000\001\000\000\000"
      }
    }
  }
}
node {
  name: "DS-CNN/conv_ds_1/depthwise_conv/depthwise"
  op: "DepthwiseConv2dNative"
  input: "DS-CNN/conv_1/batch_norm/Relu"
  input: "DS-CNN/conv_ds_1/depthwise_conv/depthwise_weights/read"
  attr {
    key: "T"
    value {
      type: DT_FLOAT
    }
  }
  attr {
    key: "data_format"
    value {
      s: "NHWC"
    }
  }
  attr {
    key: "dilations"
    value {
      list {
        i: 1
        i: 1
        i: 1
        i: 1
      }
    }
  }
  attr {
    key: "padding"
    value {
      s: "SAME"
    }
  }
  attr {
    key: "strides"
    value {
      list {
        i: 1
        i: 2
        i: 2
        i: 1
      }
    }
  }
}
node {
  name: "DS-CNN/conv_ds_1/depthwise_conv/biases/Initializer/zeros"
  op: "Const"
  attr {
    key: "_class"
    value {
      list {
        s: "loc:@DS-CNN/conv_ds_1/depthwise_conv/biases"
      }
    }
  }
  attr {
    key: "dtype"
    value {
      type: DT_FLOAT
    }
  }
  attr {
    key: "value"
    value {
      tensor {
        dtype: DT_FLOAT
        tensor_shape {
          dim {
            size: 76
          }
        }
        float_val: 0.0
      }
    }
  }
}
node {
  name: "DS-CNN/conv_ds_1/depthwise_conv/biases"
  op: "VariableV2"
  attr {
    key: "_class"
    value {
      list {
        s: "loc:@DS-CNN/conv_ds_1/depthwise_conv/biases"
      }
    }
  }
  attr {
    key: "container"
    value {
      s: ""
    }
  }
  attr {
    key: "dtype"
    value {
      type: DT_FLOAT
    }
  }
  attr {
    key: "shape"
    value {
      shape {
        dim {
          size: 76
        }
      }
    }
  }
  attr {
    key: "shared_name"
    value {
      s: ""
    }
  }
}
node {
  name: "DS-CNN/conv_ds_1/depthwise_conv/biases/Assign"
  op: "Assign"
  input: "DS-CNN/conv_ds_1/depthwise_conv/biases"
  input: "DS-CNN/conv_ds_1/depthwise_conv/biases/Initializer/zeros"
  attr {
    key: "T"
    value {
      type: DT_FLOAT
    }
  }
  attr {
    key: "_class"
    value {
      list {
        s: "loc:@DS-CNN/conv_ds_1/depthwise_conv/biases"
      }
    }
  }
  attr {
    key: "use_locking"
    value {
      b: true
    }
  }
  attr {
    key: "validate_shape"
    value {
      b: true
    }
  }
}
node {
  name: "DS-CNN/conv_ds_1/depthwise_conv/biases/read"
  op: "Identity"
  input: "DS-CNN/conv_ds_1/depthwise_conv/biases"
  attr {
    key: "T"
    value {
      type: DT_FLOAT
    }
  }
  attr {
    key: "_class"
    value {
      list {
        s: "loc:@DS-CNN/conv_ds_1/depthwise_conv/biases"
      }
    }
  }
}
node {
  name: "DS-CNN/conv_ds_1/depthwise_conv/BiasAdd"
  op: "BiasAdd"
  input: "DS-CNN/conv_ds_1/depthwise_conv/depthwise"
  input: "DS-CNN/conv_ds_1/depthwise_conv/biases/read"
  attr {
    key: "T"
    value {
      type: DT_FLOAT
    }
  }
  attr {
    key: "data_format"
    value {
      s: "NHWC"
    }
  }
}
node {
  name: "DS-CNN/conv_ds_1/dw_batch_norm/beta/Initializer/zeros"
  op: "Const"
  attr {
    key: "_class"
    value {
      list {
        s: "loc:@DS-CNN/conv_ds_1/dw_batch_norm/beta"
      }
    }
  }
  attr {
    key: "dtype"
    value {
      type: DT_FLOAT
    }
  }
  attr {
    key: "value"
    value {
      tensor {
        dtype: DT_FLOAT
        tensor_shape {
          dim {
            size: 76
          }
        }
        float_val: 0.0
      }
    }
  }
}
node {
  name: "DS-CNN/conv_ds_1/dw_batch_norm/beta"
  op: "VariableV2"
  attr {
    key: "_class"
    value {
      list {
        s: "loc:@DS-CNN/conv_ds_1/dw_batch_norm/beta"
      }
    }
  }
  attr {
    key: "container"
    value {
      s: ""
    }
  }
  attr {
    key: "dtype"
    value {
      type: DT_FLOAT
    }
  }
  attr {
    key: "shape"
    value {
      shape {
        dim {
          size: 76
        }
      }
    }
  }
  attr {
    key: "shared_name"
    value {
      s: ""
    }
  }
}
node {
  name: "DS-CNN/conv_ds_1/dw_batch_norm/beta/Assign"
  op: "Assign"
  input: "DS-CNN/conv_ds_1/dw_batch_norm/beta"
  input: "DS-CNN/conv_ds_1/dw_batch_norm/beta/Initializer/zeros"
  attr {
    key: "T"
    value {
      type: DT_FLOAT
    }
  }
  attr {
    key: "_class"
    value {
      list {
        s: "loc:@DS-CNN/conv_ds_1/dw_batch_norm/beta"
      }
    }
  }
  attr {
    key: "use_locking"
    value {
      b: true
    }
  }
  attr {
    key: "validate_shape"
    value {
      b: true
    }
  }
}
node {
  name: "DS-CNN/conv_ds_1/dw_batch_norm/beta/read"
  op: "Identity"
  input: "DS-CNN/conv_ds_1/dw_batch_norm/beta"
  attr {
    key: "T"
    value {
      type: DT_FLOAT
    }
  }
  attr {
    key: "_class"
    value {
      list {
        s: "loc:@DS-CNN/conv_ds_1/dw_batch_norm/beta"
      }
    }
  }
}
node {
  name: "DS-CNN/conv_ds_1/dw_batch_norm/Const"
  op: "Const"
  attr {
    key: "dtype"
    value {
      type: DT_FLOAT
    }
  }
  attr {
    key: "value"
    value {
      tensor {
        dtype: DT_FLOAT
        tensor_shape {
          dim {
            size: 76
          }
        }
        float_val: 1.0
      }
    }
  }
}
node {
  name: "DS-CNN/conv_ds_1/dw_batch_norm/moving_mean/Initializer/zeros"
  op: "Const"
  attr {
    key: "_class"
    value {
      list {
        s: "loc:@DS-CNN/conv_ds_1/dw_batch_norm/moving_mean"
      }
    }
  }
  attr {
    key: "dtype"
    value {
      type: DT_FLOAT
    }
  }
  attr {
    key: "value"
    value {
      tensor {
        dtype: DT_FLOAT
        tensor_shape {
          dim {
            size: 76
          }
        }
        float_val: 0.0
      }
    }
  }
}
node {
  name: "DS-CNN/conv_ds_1/dw_batch_norm/moving_mean"
  op: "VariableV2"
  attr {
    key: "_class"
    value {
      list {
        s: "loc:@DS-CNN/conv_ds_1/dw_batch_norm/moving_mean"
      }
    }
  }
  attr {
    key: "container"
    value {
      s: ""
    }
  }
  attr {
    key: "dtype"
    value {
      type: DT_FLOAT
    }
  }
  attr {
    key: "shape"
    value {
      shape {
        dim {
          size: 76
        }
      }
    }
  }
  attr {
    key: "shared_name"
    value {
      s: ""
    }
  }
}
node {
  name: "DS-CNN/conv_ds_1/dw_batch_norm/moving_mean/Assign"
  op: "Assign"
  input: "DS-CNN/conv_ds_1/dw_batch_norm/moving_mean"
  input: "DS-CNN/conv_ds_1/dw_batch_norm/moving_mean/Initializer/zeros"
  attr {
    key: "T"
    value {
      type: DT_FLOAT
    }
  }
  attr {
    key: "_class"
    value {
      list {
        s: "loc:@DS-CNN/conv_ds_1/dw_batch_norm/moving_mean"
      }
    }
  }
  attr {
    key: "use_locking"
    value {
      b: true
    }
  }
  attr {
    key: "validate_shape"
    value {
      b: true
    }
  }
}
node {
  name: "DS-CNN/conv_ds_1/dw_batch_norm/moving_mean/read"
  op: "Identity"
  input: "DS-CNN/conv_ds_1/dw_batch_norm/moving_mean"
  attr {
    key: "T"
    value {
      type: DT_FLOAT
    }
  }
  attr {
    key: "_class"
    value {
      list {
        s: "loc:@DS-CNN/conv_ds_1/dw_batch_norm/moving_mean"
      }
    }
  }
}
node {
  name: "DS-CNN/conv_ds_1/dw_batch_norm/moving_variance/Initializer/ones"
  op: "Const"
  attr {
    key: "_class"
    value {
      list {
        s: "loc:@DS-CNN/conv_ds_1/dw_batch_norm/moving_variance"
      }
    }
  }
  attr {
    key: "dtype"
    value {
      type: DT_FLOAT
    }
  }
  attr {
    key: "value"
    value {
      tensor {
        dtype: DT_FLOAT
        tensor_shape {
          dim {
            size: 76
          }
        }
        float_val: 1.0
      }
    }
  }
}
node {
  name: "DS-CNN/conv_ds_1/dw_batch_norm/moving_variance"
  op: "VariableV2"
  attr {
    key: "_class"
    value {
      list {
        s: "loc:@DS-CNN/conv_ds_1/dw_batch_norm/moving_variance"
      }
    }
  }
  attr {
    key: "container"
    value {
      s: ""
    }
  }
  attr {
    key: "dtype"
    value {
      type: DT_FLOAT
    }
  }
  attr {
    key: "shape"
    value {
      shape {
        dim {
          size: 76
        }
      }
    }
  }
  attr {
    key: "shared_name"
    value {
      s: ""
    }
  }
}
node {
  name: "DS-CNN/conv_ds_1/dw_batch_norm/moving_variance/Assign"
  op: "Assign"
  input: "DS-CNN/conv_ds_1/dw_batch_norm/moving_variance"
  input: "DS-CNN/conv_ds_1/dw_batch_norm/moving_variance/Initializer/ones"
  attr {
    key: "T"
    value {
      type: DT_FLOAT
    }
  }
  attr {
    key: "_class"
    value {
      list {
        s: "loc:@DS-CNN/conv_ds_1/dw_batch_norm/moving_variance"
      }
    }
  }
  attr {
    key: "use_locking"
    value {
      b: true
    }
  }
  attr {
    key: "validate_shape"
    value {
      b: true
    }
  }
}
node {
  name: "DS-CNN/conv_ds_1/dw_batch_norm/moving_variance/read"
  op: "Identity"
  input: "DS-CNN/conv_ds_1/dw_batch_norm/moving_variance"
  attr {
    key: "T"
    value {
      type: DT_FLOAT
    }
  }
  attr {
    key: "_class"
    value {
      list {
        s: "loc:@DS-CNN/conv_ds_1/dw_batch_norm/moving_variance"
      }
    }
  }
}
node {
  name: "DS-CNN/conv_ds_1/dw_batch_norm/Const_1"
  op: "Const"
  attr {
    key: "dtype"
    value {
      type: DT_FLOAT
    }
  }
  attr {
    key: "value"
    value {
      tensor {
        dtype: DT_FLOAT
        tensor_shape {
          dim {
          }
        }
      }
    }
  }
}
node {
  name: "DS-CNN/conv_ds_1/dw_batch_norm/Const_2"
  op: "Const"
  attr {
    key: "dtype"
    value {
      type: DT_FLOAT
    }
  }
  attr {
    key: "value"
    value {
      tensor {
        dtype: DT_FLOAT
        tensor_shape {
          dim {
          }
        }
      }
    }
  }
}
node {
  name: "DS-CNN/conv_ds_1/dw_batch_norm/FusedBatchNorm"
  op: "FusedBatchNorm"
  input: "DS-CNN/conv_ds_1/depthwise_conv/BiasAdd"
  input: "DS-CNN/conv_ds_1/dw_batch_norm/Const"
  input: "DS-CNN/conv_ds_1/dw_batch_norm/beta/read"
  input: "DS-CNN/conv_ds_1/dw_batch_norm/Const_1"
  input: "DS-CNN/conv_ds_1/dw_batch_norm/Const_2"
  attr {
    key: "T"
    value {
      type: DT_FLOAT
    }
  }
  attr {
    key: "data_format"
    value {
      s: "NHWC"
    }
  }
  attr {
    key: "epsilon"
    value {
      f: 0.001
    }
  }
  attr {
    key: "is_training"
    value {
      b: true
    }
  }
}
node {
  name: "DS-CNN/conv_ds_1/dw_batch_norm/AssignMovingAvg/decay"
  op: "Const"
  attr {
    key: "_class"
    value {
      list {
        s: "loc:@DS-CNN/conv_ds_1/dw_batch_norm/moving_mean"
      }
    }
  }
  attr {
    key: "dtype"
    value {
      type: DT_FLOAT
    }
  }
  attr {
    key: "value"
    value {
      tensor {
        dtype: DT_FLOAT
        tensor_shape {
        }
        float_val: 0.03999999910593033
      }
    }
  }
}
node {
  name: "DS-CNN/conv_ds_1/dw_batch_norm/AssignMovingAvg/sub"
  op: "Sub"
  input: "DS-CNN/conv_ds_1/dw_batch_norm/moving_mean/read"
  input: "DS-CNN/conv_ds_1/dw_batch_norm/FusedBatchNorm:1"
  attr {
    key: "T"
    value {
      type: DT_FLOAT
    }
  }
  attr {
    key: "_class"
    value {
      list {
        s: "loc:@DS-CNN/conv_ds_1/dw_batch_norm/moving_mean"
      }
    }
  }
}
node {
  name: "DS-CNN/conv_ds_1/dw_batch_norm/AssignMovingAvg/mul"
  op: "Mul"
  input: "DS-CNN/conv_ds_1/dw_batch_norm/AssignMovingAvg/sub"
  input: "DS-CNN/conv_ds_1/dw_batch_norm/AssignMovingAvg/decay"
  attr {
    key: "T"
    value {
      type: DT_FLOAT
    }
  }
  attr {
    key: "_class"
    value {
      list {
        s: "loc:@DS-CNN/conv_ds_1/dw_batch_norm/moving_mean"
      }
    }
  }
}
node {
  name: "DS-CNN/conv_ds_1/dw_batch_norm/AssignMovingAvg"
  op: "AssignSub"
  input: "DS-CNN/conv_ds_1/dw_batch_norm/moving_mean"
  input: "DS-CNN/conv_ds_1/dw_batch_norm/AssignMovingAvg/mul"
  attr {
    key: "T"
    value {
      type: DT_FLOAT
    }
  }
  attr {
    key: "_class"
    value {
      list {
        s: "loc:@DS-CNN/conv_ds_1/dw_batch_norm/moving_mean"
      }
    }
  }
  attr {
    key: "use_locking"
    value {
      b: false
    }
  }
}
node {
  name: "DS-CNN/conv_ds_1/dw_batch_norm/AssignMovingAvg_1/decay"
  op: "Const"
  attr {
    key: "_class"
    value {
      list {
        s: "loc:@DS-CNN/conv_ds_1/dw_batch_norm/moving_variance"
      }
    }
  }
  attr {
    key: "dtype"
    value {
      type: DT_FLOAT
    }
  }
  attr {
    key: "value"
    value {
      tensor {
        dtype: DT_FLOAT
        tensor_shape {
        }
        float_val: 0.03999999910593033
      }
    }
  }
}
node {
  name: "DS-CNN/conv_ds_1/dw_batch_norm/AssignMovingAvg_1/sub"
  op: "Sub"
  input: "DS-CNN/conv_ds_1/dw_batch_norm/moving_variance/read"
  input: "DS-CNN/conv_ds_1/dw_batch_norm/FusedBatchNorm:2"
  attr {
    key: "T"
    value {
      type: DT_FLOAT
    }
  }
  attr {
    key: "_class"
    value {
      list {
        s: "loc:@DS-CNN/conv_ds_1/dw_batch_norm/moving_variance"
      }
    }
  }
}
node {
  name: "DS-CNN/conv_ds_1/dw_batch_norm/AssignMovingAvg_1/mul"
  op: "Mul"
  input: "DS-CNN/conv_ds_1/dw_batch_norm/AssignMovingAvg_1/sub"
  input: "DS-CNN/conv_ds_1/dw_batch_norm/AssignMovingAvg_1/decay"
  attr {
    key: "T"
    value {
      type: DT_FLOAT
    }
  }
  attr {
    key: "_class"
    value {
      list {
        s: "loc:@DS-CNN/conv_ds_1/dw_batch_norm/moving_variance"
      }
    }
  }
}
node {
  name: "DS-CNN/conv_ds_1/dw_batch_norm/AssignMovingAvg_1"
  op: "AssignSub"
  input: "DS-CNN/conv_ds_1/dw_batch_norm/moving_variance"
  input: "DS-CNN/conv_ds_1/dw_batch_norm/AssignMovingAvg_1/mul"
  attr {
    key: "T"
    value {
      type: DT_FLOAT
    }
  }
  attr {
    key: "_class"
    value {
      list {
        s: "loc:@DS-CNN/conv_ds_1/dw_batch_norm/moving_variance"
      }
    }
  }
  attr {
    key: "use_locking"
    value {
      b: false
    }
  }
}
node {
  name: "DS-CNN/conv_ds_1/dw_batch_norm/Identity"
  op: "Identity"
  input: "DS-CNN/conv_ds_1/dw_batch_norm/FusedBatchNorm"
  input: "^DS-CNN/conv_ds_1/dw_batch_norm/AssignMovingAvg"
  input: "^DS-CNN/conv_ds_1/dw_batch_norm/AssignMovingAvg_1"
  attr {
    key: "T"
    value {
      type: DT_FLOAT
    }
  }
}
node {
  name: "DS-CNN/conv_ds_1/dw_batch_norm/Relu"
  op: "Relu"
  input: "DS-CNN/conv_ds_1/dw_batch_norm/Identity"
  attr {
    key: "T"
    value {
      type: DT_FLOAT
    }
  }
}
node {
  name: "DS-CNN/conv_ds_1/pointwise_conv/weights/Initializer/random_uniform/shape"
  op: "Const"
  attr {
    key: "_class"
    value {
      list {
        s: "loc:@DS-CNN/conv_ds_1/pointwise_conv/weights"
      }
    }
  }
  attr {
    key: "dtype"
    value {
      type: DT_INT32
    }
  }
  attr {
    key: "value"
    value {
      tensor {
        dtype: DT_INT32
        tensor_shape {
          dim {
            size: 4
          }
        }
        tensor_content: "\001\000\000\000\001\000\000\000L\000\000\000L\000\000\000"
      }
    }
  }
}
node {
  name: "DS-CNN/conv_ds_1/pointwise_conv/weights/Initializer/random_uniform/min"
  op: "Const"
  attr {
    key: "_class"
    value {
      list {
        s: "loc:@DS-CNN/conv_ds_1/pointwise_conv/weights"
      }
    }
  }
  attr {
    key: "dtype"
    value {
      type: DT_FLOAT
    }
  }
  attr {
    key: "value"
    value {
      tensor {
        dtype: DT_FLOAT
        tensor_shape {
        }
        float_val: -0.1986798495054245
      }
    }
  }
}
node {
  name: "DS-CNN/conv_ds_1/pointwise_conv/weights/Initializer/random_uniform/max"
  op: "Const"
  attr {
    key: "_class"
    value {
      list {
        s: "loc:@DS-CNN/conv_ds_1/pointwise_conv/weights"
      }
    }
  }
  attr {
    key: "dtype"
    value {
      type: DT_FLOAT
    }
  }
  attr {
    key: "value"
    value {
      tensor {
        dtype: DT_FLOAT
        tensor_shape {
        }
        float_val: 0.1986798495054245
      }
    }
  }
}
node {
  name: "DS-CNN/conv_ds_1/pointwise_conv/weights/Initializer/random_uniform/RandomUniform"
  op: "RandomUniform"
  input: "DS-CNN/conv_ds_1/pointwise_conv/weights/Initializer/random_uniform/shape"
  attr {
    key: "T"
    value {
      type: DT_INT32
    }
  }
  attr {
    key: "_class"
    value {
      list {
        s: "loc:@DS-CNN/conv_ds_1/pointwise_conv/weights"
      }
    }
  }
  attr {
    key: "dtype"
    value {
      type: DT_FLOAT
    }
  }
  attr {
    key: "seed"
    value {
      i: 0
    }
  }
  attr {
    key: "seed2"
    value {
      i: 0
    }
  }
}
node {
  name: "DS-CNN/conv_ds_1/pointwise_conv/weights/Initializer/random_uniform/sub"
  op: "Sub"
  input: "DS-CNN/conv_ds_1/pointwise_conv/weights/Initializer/random_uniform/max"
  input: "DS-CNN/conv_ds_1/pointwise_conv/weights/Initializer/random_uniform/min"
  attr {
    key: "T"
    value {
      type: DT_FLOAT
    }
  }
  attr {
    key: "_class"
    value {
      list {
        s: "loc:@DS-CNN/conv_ds_1/pointwise_conv/weights"
      }
    }
  }
}
node {
  name: "DS-CNN/conv_ds_1/pointwise_conv/weights/Initializer/random_uniform/mul"
  op: "Mul"
  input: "DS-CNN/conv_ds_1/pointwise_conv/weights/Initializer/random_uniform/RandomUniform"
  input: "DS-CNN/conv_ds_1/pointwise_conv/weights/Initializer/random_uniform/sub"
  attr {
    key: "T"
    value {
      type: DT_FLOAT
    }
  }
  attr {
    key: "_class"
    value {
      list {
        s: "loc:@DS-CNN/conv_ds_1/pointwise_conv/weights"
      }
    }
  }
}
node {
  name: "DS-CNN/conv_ds_1/pointwise_conv/weights/Initializer/random_uniform"
  op: "Add"
  input: "DS-CNN/conv_ds_1/pointwise_conv/weights/Initializer/random_uniform/mul"
  input: "DS-CNN/conv_ds_1/pointwise_conv/weights/Initializer/random_uniform/min"
  attr {
    key: "T"
    value {
      type: DT_FLOAT
    }
  }
  attr {
    key: "_class"
    value {
      list {
        s: "loc:@DS-CNN/conv_ds_1/pointwise_conv/weights"
      }
    }
  }
}
node {
  name: "DS-CNN/conv_ds_1/pointwise_conv/weights"
  op: "VariableV2"
  attr {
    key: "_class"
    value {
      list {
        s: "loc:@DS-CNN/conv_ds_1/pointwise_conv/weights"
      }
    }
  }
  attr {
    key: "container"
    value {
      s: ""
    }
  }
  attr {
    key: "dtype"
    value {
      type: DT_FLOAT
    }
  }
  attr {
    key: "shape"
    value {
      shape {
        dim {
          size: 1
        }
        dim {
          size: 1
        }
        dim {
          size: 76
        }
        dim {
          size: 76
        }
      }
    }
  }
  attr {
    key: "shared_name"
    value {
      s: ""
    }
  }
}
node {
  name: "DS-CNN/conv_ds_1/pointwise_conv/weights/Assign"
  op: "Assign"
  input: "DS-CNN/conv_ds_1/pointwise_conv/weights"
  input: "DS-CNN/conv_ds_1/pointwise_conv/weights/Initializer/random_uniform"
  attr {
    key: "T"
    value {
      type: DT_FLOAT
    }
  }
  attr {
    key: "_class"
    value {
      list {
        s: "loc:@DS-CNN/conv_ds_1/pointwise_conv/weights"
      }
    }
  }
  attr {
    key: "use_locking"
    value {
      b: true
    }
  }
  attr {
    key: "validate_shape"
    value {
      b: true
    }
  }
}
node {
  name: "DS-CNN/conv_ds_1/pointwise_conv/weights/read"
  op: "Identity"
  input: "DS-CNN/conv_ds_1/pointwise_conv/weights"
  attr {
    key: "T"
    value {
      type: DT_FLOAT
    }
  }
  attr {
    key: "_class"
    value {
      list {
        s: "loc:@DS-CNN/conv_ds_1/pointwise_conv/weights"
      }
    }
  }
}
node {
  name: "DS-CNN/conv_ds_1/pointwise_conv/biases/Initializer/zeros"
  op: "Const"
  attr {
    key: "_class"
    value {
      list {
        s: "loc:@DS-CNN/conv_ds_1/pointwise_conv/biases"
      }
    }
  }
  attr {
    key: "dtype"
    value {
      type: DT_FLOAT
    }
  }
  attr {
    key: "value"
    value {
      tensor {
        dtype: DT_FLOAT
        tensor_shape {
          dim {
            size: 76
          }
        }
        float_val: 0.0
      }
    }
  }
}
node {
  name: "DS-CNN/conv_ds_1/pointwise_conv/biases"
  op: "VariableV2"
  attr {
    key: "_class"
    value {
      list {
        s: "loc:@DS-CNN/conv_ds_1/pointwise_conv/biases"
      }
    }
  }
  attr {
    key: "container"
    value {
      s: ""
    }
  }
  attr {
    key: "dtype"
    value {
      type: DT_FLOAT
    }
  }
  attr {
    key: "shape"
    value {
      shape {
        dim {
          size: 76
        }
      }
    }
  }
  attr {
    key: "shared_name"
    value {
      s: ""
    }
  }
}
node {
  name: "DS-CNN/conv_ds_1/pointwise_conv/biases/Assign"
  op: "Assign"
  input: "DS-CNN/conv_ds_1/pointwise_conv/biases"
  input: "DS-CNN/conv_ds_1/pointwise_conv/biases/Initializer/zeros"
  attr {
    key: "T"
    value {
      type: DT_FLOAT
    }
  }
  attr {
    key: "_class"
    value {
      list {
        s: "loc:@DS-CNN/conv_ds_1/pointwise_conv/biases"
      }
    }
  }
  attr {
    key: "use_locking"
    value {
      b: true
    }
  }
  attr {
    key: "validate_shape"
    value {
      b: true
    }
  }
}
node {
  name: "DS-CNN/conv_ds_1/pointwise_conv/biases/read"
  op: "Identity"
  input: "DS-CNN/conv_ds_1/pointwise_conv/biases"
  attr {
    key: "T"
    value {
      type: DT_FLOAT
    }
  }
  attr {
    key: "_class"
    value {
      list {
        s: "loc:@DS-CNN/conv_ds_1/pointwise_conv/biases"
      }
    }
  }
}
node {
  name: "DS-CNN/conv_ds_1/pointwise_conv/dilation_rate"
  op: "Const"
  attr {
    key: "dtype"
    value {
      type: DT_INT32
    }
  }
  attr {
    key: "value"
    value {
      tensor {
        dtype: DT_INT32
        tensor_shape {
          dim {
            size: 2
          }
        }
        tensor_content: "\001\000\000\000\001\000\000\000"
      }
    }
  }
}
node {
  name: "DS-CNN/conv_ds_1/pointwise_conv/Conv2D"
  op: "Conv2D"
  input: "DS-CNN/conv_ds_1/dw_batch_norm/Relu"
  input: "DS-CNN/conv_ds_1/pointwise_conv/weights/read"
  attr {
    key: "T"
    value {
      type: DT_FLOAT
    }
  }
  attr {
    key: "data_format"
    value {
      s: "NHWC"
    }
  }
  attr {
    key: "dilations"
    value {
      list {
        i: 1
        i: 1
        i: 1
        i: 1
      }
    }
  }
  attr {
    key: "padding"
    value {
      s: "SAME"
    }
  }
  attr {
    key: "strides"
    value {
      list {
        i: 1
        i: 1
        i: 1
        i: 1
      }
    }
  }
  attr {
    key: "use_cudnn_on_gpu"
    value {
      b: true
    }
  }
}
node {
  name: "DS-CNN/conv_ds_1/pointwise_conv/BiasAdd"
  op: "BiasAdd"
  input: "DS-CNN/conv_ds_1/pointwise_conv/Conv2D"
  input: "DS-CNN/conv_ds_1/pointwise_conv/biases/read"
  attr {
    key: "T"
    value {
      type: DT_FLOAT
    }
  }
  attr {
    key: "data_format"
    value {
      s: "NHWC"
    }
  }
}
node {
  name: "DS-CNN/conv_ds_1/pw_batch_norm/beta/Initializer/zeros"
  op: "Const"
  attr {
    key: "_class"
    value {
      list {
        s: "loc:@DS-CNN/conv_ds_1/pw_batch_norm/beta"
      }
    }
  }
  attr {
    key: "dtype"
    value {
      type: DT_FLOAT
    }
  }
  attr {
    key: "value"
    value {
      tensor {
        dtype: DT_FLOAT
        tensor_shape {
          dim {
            size: 76
          }
        }
        float_val: 0.0
      }
    }
  }
}
node {
  name: "DS-CNN/conv_ds_1/pw_batch_norm/beta"
  op: "VariableV2"
  attr {
    key: "_class"
    value {
      list {
        s: "loc:@DS-CNN/conv_ds_1/pw_batch_norm/beta"
      }
    }
  }
  attr {
    key: "container"
    value {
      s: ""
    }
  }
  attr {
    key: "dtype"
    value {
      type: DT_FLOAT
    }
  }
  attr {
    key: "shape"
    value {
      shape {
        dim {
          size: 76
        }
      }
    }
  }
  attr {
    key: "shared_name"
    value {
      s: ""
    }
  }
}
node {
  name: "DS-CNN/conv_ds_1/pw_batch_norm/beta/Assign"
  op: "Assign"
  input: "DS-CNN/conv_ds_1/pw_batch_norm/beta"
  input: "DS-CNN/conv_ds_1/pw_batch_norm/beta/Initializer/zeros"
  attr {
    key: "T"
    value {
      type: DT_FLOAT
    }
  }
  attr {
    key: "_class"
    value {
      list {
        s: "loc:@DS-CNN/conv_ds_1/pw_batch_norm/beta"
      }
    }
  }
  attr {
    key: "use_locking"
    value {
      b: true
    }
  }
  attr {
    key: "validate_shape"
    value {
      b: true
    }
  }
}
node {
  name: "DS-CNN/conv_ds_1/pw_batch_norm/beta/read"
  op: "Identity"
  input: "DS-CNN/conv_ds_1/pw_batch_norm/beta"
  attr {
    key: "T"
    value {
      type: DT_FLOAT
    }
  }
  attr {
    key: "_class"
    value {
      list {
        s: "loc:@DS-CNN/conv_ds_1/pw_batch_norm/beta"
      }
    }
  }
}
node {
  name: "DS-CNN/conv_ds_1/pw_batch_norm/Const"
  op: "Const"
  attr {
    key: "dtype"
    value {
      type: DT_FLOAT
    }
  }
  attr {
    key: "value"
    value {
      tensor {
        dtype: DT_FLOAT
        tensor_shape {
          dim {
            size: 76
          }
        }
        float_val: 1.0
      }
    }
  }
}
node {
  name: "DS-CNN/conv_ds_1/pw_batch_norm/moving_mean/Initializer/zeros"
  op: "Const"
  attr {
    key: "_class"
    value {
      list {
        s: "loc:@DS-CNN/conv_ds_1/pw_batch_norm/moving_mean"
      }
    }
  }
  attr {
    key: "dtype"
    value {
      type: DT_FLOAT
    }
  }
  attr {
    key: "value"
    value {
      tensor {
        dtype: DT_FLOAT
        tensor_shape {
          dim {
            size: 76
          }
        }
        float_val: 0.0
      }
    }
  }
}
node {
  name: "DS-CNN/conv_ds_1/pw_batch_norm/moving_mean"
  op: "VariableV2"
  attr {
    key: "_class"
    value {
      list {
        s: "loc:@DS-CNN/conv_ds_1/pw_batch_norm/moving_mean"
      }
    }
  }
  attr {
    key: "container"
    value {
      s: ""
    }
  }
  attr {
    key: "dtype"
    value {
      type: DT_FLOAT
    }
  }
  attr {
    key: "shape"
    value {
      shape {
        dim {
          size: 76
        }
      }
    }
  }
  attr {
    key: "shared_name"
    value {
      s: ""
    }
  }
}
node {
  name: "DS-CNN/conv_ds_1/pw_batch_norm/moving_mean/Assign"
  op: "Assign"
  input: "DS-CNN/conv_ds_1/pw_batch_norm/moving_mean"
  input: "DS-CNN/conv_ds_1/pw_batch_norm/moving_mean/Initializer/zeros"
  attr {
    key: "T"
    value {
      type: DT_FLOAT
    }
  }
  attr {
    key: "_class"
    value {
      list {
        s: "loc:@DS-CNN/conv_ds_1/pw_batch_norm/moving_mean"
      }
    }
  }
  attr {
    key: "use_locking"
    value {
      b: true
    }
  }
  attr {
    key: "validate_shape"
    value {
      b: true
    }
  }
}
node {
  name: "DS-CNN/conv_ds_1/pw_batch_norm/moving_mean/read"
  op: "Identity"
  input: "DS-CNN/conv_ds_1/pw_batch_norm/moving_mean"
  attr {
    key: "T"
    value {
      type: DT_FLOAT
    }
  }
  attr {
    key: "_class"
    value {
      list {
        s: "loc:@DS-CNN/conv_ds_1/pw_batch_norm/moving_mean"
      }
    }
  }
}
node {
  name: "DS-CNN/conv_ds_1/pw_batch_norm/moving_variance/Initializer/ones"
  op: "Const"
  attr {
    key: "_class"
    value {
      list {
        s: "loc:@DS-CNN/conv_ds_1/pw_batch_norm/moving_variance"
      }
    }
  }
  attr {
    key: "dtype"
    value {
      type: DT_FLOAT
    }
  }
  attr {
    key: "value"
    value {
      tensor {
        dtype: DT_FLOAT
        tensor_shape {
          dim {
            size: 76
          }
        }
        float_val: 1.0
      }
    }
  }
}
node {
  name: "DS-CNN/conv_ds_1/pw_batch_norm/moving_variance"
  op: "VariableV2"
  attr {
    key: "_class"
    value {
      list {
        s: "loc:@DS-CNN/conv_ds_1/pw_batch_norm/moving_variance"
      }
    }
  }
  attr {
    key: "container"
    value {
      s: ""
    }
  }
  attr {
    key: "dtype"
    value {
      type: DT_FLOAT
    }
  }
  attr {
    key: "shape"
    value {
      shape {
        dim {
          size: 76
        }
      }
    }
  }
  attr {
    key: "shared_name"
    value {
      s: ""
    }
  }
}
node {
  name: "DS-CNN/conv_ds_1/pw_batch_norm/moving_variance/Assign"
  op: "Assign"
  input: "DS-CNN/conv_ds_1/pw_batch_norm/moving_variance"
  input: "DS-CNN/conv_ds_1/pw_batch_norm/moving_variance/Initializer/ones"
  attr {
    key: "T"
    value {
      type: DT_FLOAT
    }
  }
  attr {
    key: "_class"
    value {
      list {
        s: "loc:@DS-CNN/conv_ds_1/pw_batch_norm/moving_variance"
      }
    }
  }
  attr {
    key: "use_locking"
    value {
      b: true
    }
  }
  attr {
    key: "validate_shape"
    value {
      b: true
    }
  }
}
node {
  name: "DS-CNN/conv_ds_1/pw_batch_norm/moving_variance/read"
  op: "Identity"
  input: "DS-CNN/conv_ds_1/pw_batch_norm/moving_variance"
  attr {
    key: "T"
    value {
      type: DT_FLOAT
    }
  }
  attr {
    key: "_class"
    value {
      list {
        s: "loc:@DS-CNN/conv_ds_1/pw_batch_norm/moving_variance"
      }
    }
  }
}
node {
  name: "DS-CNN/conv_ds_1/pw_batch_norm/Const_1"
  op: "Const"
  attr {
    key: "dtype"
    value {
      type: DT_FLOAT
    }
  }
  attr {
    key: "value"
    value {
      tensor {
        dtype: DT_FLOAT
        tensor_shape {
          dim {
          }
        }
      }
    }
  }
}
node {
  name: "DS-CNN/conv_ds_1/pw_batch_norm/Const_2"
  op: "Const"
  attr {
    key: "dtype"
    value {
      type: DT_FLOAT
    }
  }
  attr {
    key: "value"
    value {
      tensor {
        dtype: DT_FLOAT
        tensor_shape {
          dim {
          }
        }
      }
    }
  }
}
node {
  name: "DS-CNN/conv_ds_1/pw_batch_norm/FusedBatchNorm"
  op: "FusedBatchNorm"
  input: "DS-CNN/conv_ds_1/pointwise_conv/BiasAdd"
  input: "DS-CNN/conv_ds_1/pw_batch_norm/Const"
  input: "DS-CNN/conv_ds_1/pw_batch_norm/beta/read"
  input: "DS-CNN/conv_ds_1/pw_batch_norm/Const_1"
  input: "DS-CNN/conv_ds_1/pw_batch_norm/Const_2"
  attr {
    key: "T"
    value {
      type: DT_FLOAT
    }
  }
  attr {
    key: "data_format"
    value {
      s: "NHWC"
    }
  }
  attr {
    key: "epsilon"
    value {
      f: 0.001
    }
  }
  attr {
    key: "is_training"
    value {
      b: true
    }
  }
}
node {
  name: "DS-CNN/conv_ds_1/pw_batch_norm/AssignMovingAvg/decay"
  op: "Const"
  attr {
    key: "_class"
    value {
      list {
        s: "loc:@DS-CNN/conv_ds_1/pw_batch_norm/moving_mean"
      }
    }
  }
  attr {
    key: "dtype"
    value {
      type: DT_FLOAT
    }
  }
  attr {
    key: "value"
    value {
      tensor {
        dtype: DT_FLOAT
        tensor_shape {
        }
        float_val: 0.03999999910593033
      }
    }
  }
}
node {
  name: "DS-CNN/conv_ds_1/pw_batch_norm/AssignMovingAvg/sub"
  op: "Sub"
  input: "DS-CNN/conv_ds_1/pw_batch_norm/moving_mean/read"
  input: "DS-CNN/conv_ds_1/pw_batch_norm/FusedBatchNorm:1"
  attr {
    key: "T"
    value {
      type: DT_FLOAT
    }
  }
  attr {
    key: "_class"
    value {
      list {
        s: "loc:@DS-CNN/conv_ds_1/pw_batch_norm/moving_mean"
      }
    }
  }
}
node {
  name: "DS-CNN/conv_ds_1/pw_batch_norm/AssignMovingAvg/mul"
  op: "Mul"
  input: "DS-CNN/conv_ds_1/pw_batch_norm/AssignMovingAvg/sub"
  input: "DS-CNN/conv_ds_1/pw_batch_norm/AssignMovingAvg/decay"
  attr {
    key: "T"
    value {
      type: DT_FLOAT
    }
  }
  attr {
    key: "_class"
    value {
      list {
        s: "loc:@DS-CNN/conv_ds_1/pw_batch_norm/moving_mean"
      }
    }
  }
}
node {
  name: "DS-CNN/conv_ds_1/pw_batch_norm/AssignMovingAvg"
  op: "AssignSub"
  input: "DS-CNN/conv_ds_1/pw_batch_norm/moving_mean"
  input: "DS-CNN/conv_ds_1/pw_batch_norm/AssignMovingAvg/mul"
  attr {
    key: "T"
    value {
      type: DT_FLOAT
    }
  }
  attr {
    key: "_class"
    value {
      list {
        s: "loc:@DS-CNN/conv_ds_1/pw_batch_norm/moving_mean"
      }
    }
  }
  attr {
    key: "use_locking"
    value {
      b: false
    }
  }
}
node {
  name: "DS-CNN/conv_ds_1/pw_batch_norm/AssignMovingAvg_1/decay"
  op: "Const"
  attr {
    key: "_class"
    value {
      list {
        s: "loc:@DS-CNN/conv_ds_1/pw_batch_norm/moving_variance"
      }
    }
  }
  attr {
    key: "dtype"
    value {
      type: DT_FLOAT
    }
  }
  attr {
    key: "value"
    value {
      tensor {
        dtype: DT_FLOAT
        tensor_shape {
        }
        float_val: 0.03999999910593033
      }
    }
  }
}
node {
  name: "DS-CNN/conv_ds_1/pw_batch_norm/AssignMovingAvg_1/sub"
  op: "Sub"
  input: "DS-CNN/conv_ds_1/pw_batch_norm/moving_variance/read"
  input: "DS-CNN/conv_ds_1/pw_batch_norm/FusedBatchNorm:2"
  attr {
    key: "T"
    value {
      type: DT_FLOAT
    }
  }
  attr {
    key: "_class"
    value {
      list {
        s: "loc:@DS-CNN/conv_ds_1/pw_batch_norm/moving_variance"
      }
    }
  }
}
node {
  name: "DS-CNN/conv_ds_1/pw_batch_norm/AssignMovingAvg_1/mul"
  op: "Mul"
  input: "DS-CNN/conv_ds_1/pw_batch_norm/AssignMovingAvg_1/sub"
  input: "DS-CNN/conv_ds_1/pw_batch_norm/AssignMovingAvg_1/decay"
  attr {
    key: "T"
    value {
      type: DT_FLOAT
    }
  }
  attr {
    key: "_class"
    value {
      list {
        s: "loc:@DS-CNN/conv_ds_1/pw_batch_norm/moving_variance"
      }
    }
  }
}
node {
  name: "DS-CNN/conv_ds_1/pw_batch_norm/AssignMovingAvg_1"
  op: "AssignSub"
  input: "DS-CNN/conv_ds_1/pw_batch_norm/moving_variance"
  input: "DS-CNN/conv_ds_1/pw_batch_norm/AssignMovingAvg_1/mul"
  attr {
    key: "T"
    value {
      type: DT_FLOAT
    }
  }
  attr {
    key: "_class"
    value {
      list {
        s: "loc:@DS-CNN/conv_ds_1/pw_batch_norm/moving_variance"
      }
    }
  }
  attr {
    key: "use_locking"
    value {
      b: false
    }
  }
}
node {
  name: "DS-CNN/conv_ds_1/pw_batch_norm/Identity"
  op: "Identity"
  input: "DS-CNN/conv_ds_1/pw_batch_norm/FusedBatchNorm"
  input: "^DS-CNN/conv_ds_1/pw_batch_norm/AssignMovingAvg"
  input: "^DS-CNN/conv_ds_1/pw_batch_norm/AssignMovingAvg_1"
  attr {
    key: "T"
    value {
      type: DT_FLOAT
    }
  }
}
node {
  name: "DS-CNN/conv_ds_1/pw_batch_norm/Relu"
  op: "Relu"
  input: "DS-CNN/conv_ds_1/pw_batch_norm/Identity"
  attr {
    key: "T"
    value {
      type: DT_FLOAT
    }
  }
}
node {
  name: "DS-CNN/conv_ds_2/depthwise_conv/depthwise_weights/Initializer/random_uniform/shape"
  op: "Const"
  attr {
    key: "_class"
    value {
      list {
        s: "loc:@DS-CNN/conv_ds_2/depthwise_conv/depthwise_weights"
      }
    }
  }
  attr {
    key: "dtype"
    value {
      type: DT_INT32
    }
  }
  attr {
    key: "value"
    value {
      tensor {
        dtype: DT_INT32
        tensor_shape {
          dim {
            size: 4
          }
        }
        tensor_content: "\003\000\000\000\003\000\000\000L\000\000\000\001\000\000\000"
      }
    }
  }
}
node {
  name: "DS-CNN/conv_ds_2/depthwise_conv/depthwise_weights/Initializer/random_uniform/min"
  op: "Const"
  attr {
    key: "_class"
    value {
      list {
        s: "loc:@DS-CNN/conv_ds_2/depthwise_conv/depthwise_weights"
      }
    }
  }
  attr {
    key: "dtype"
    value {
      type: DT_FLOAT
    }
  }
  attr {
    key: "value"
    value {
      tensor {
        dtype: DT_FLOAT
        tensor_shape {
        }
        float_val: -0.09304842352867126
      }
    }
  }
}
node {
  name: "DS-CNN/conv_ds_2/depthwise_conv/depthwise_weights/Initializer/random_uniform/max"
  op: "Const"
  attr {
    key: "_class"
    value {
      list {
        s: "loc:@DS-CNN/conv_ds_2/depthwise_conv/depthwise_weights"
      }
    }
  }
  attr {
    key: "dtype"
    value {
      type: DT_FLOAT
    }
  }
  attr {
    key: "value"
    value {
      tensor {
        dtype: DT_FLOAT
        tensor_shape {
        }
        float_val: 0.09304842352867126
      }
    }
  }
}
node {
  name: "DS-CNN/conv_ds_2/depthwise_conv/depthwise_weights/Initializer/random_uniform/RandomUniform"
  op: "RandomUniform"
  input: "DS-CNN/conv_ds_2/depthwise_conv/depthwise_weights/Initializer/random_uniform/shape"
  attr {
    key: "T"
    value {
      type: DT_INT32
    }
  }
  attr {
    key: "_class"
    value {
      list {
        s: "loc:@DS-CNN/conv_ds_2/depthwise_conv/depthwise_weights"
      }
    }
  }
  attr {
    key: "dtype"
    value {
      type: DT_FLOAT
    }
  }
  attr {
    key: "seed"
    value {
      i: 0
    }
  }
  attr {
    key: "seed2"
    value {
      i: 0
    }
  }
}
node {
  name: "DS-CNN/conv_ds_2/depthwise_conv/depthwise_weights/Initializer/random_uniform/sub"
  op: "Sub"
  input: "DS-CNN/conv_ds_2/depthwise_conv/depthwise_weights/Initializer/random_uniform/max"
  input: "DS-CNN/conv_ds_2/depthwise_conv/depthwise_weights/Initializer/random_uniform/min"
  attr {
    key: "T"
    value {
      type: DT_FLOAT
    }
  }
  attr {
    key: "_class"
    value {
      list {
        s: "loc:@DS-CNN/conv_ds_2/depthwise_conv/depthwise_weights"
      }
    }
  }
}
node {
  name: "DS-CNN/conv_ds_2/depthwise_conv/depthwise_weights/Initializer/random_uniform/mul"
  op: "Mul"
  input: "DS-CNN/conv_ds_2/depthwise_conv/depthwise_weights/Initializer/random_uniform/RandomUniform"
  input: "DS-CNN/conv_ds_2/depthwise_conv/depthwise_weights/Initializer/random_uniform/sub"
  attr {
    key: "T"
    value {
      type: DT_FLOAT
    }
  }
  attr {
    key: "_class"
    value {
      list {
        s: "loc:@DS-CNN/conv_ds_2/depthwise_conv/depthwise_weights"
      }
    }
  }
}
node {
  name: "DS-CNN/conv_ds_2/depthwise_conv/depthwise_weights/Initializer/random_uniform"
  op: "Add"
  input: "DS-CNN/conv_ds_2/depthwise_conv/depthwise_weights/Initializer/random_uniform/mul"
  input: "DS-CNN/conv_ds_2/depthwise_conv/depthwise_weights/Initializer/random_uniform/min"
  attr {
    key: "T"
    value {
      type: DT_FLOAT
    }
  }
  attr {
    key: "_class"
    value {
      list {
        s: "loc:@DS-CNN/conv_ds_2/depthwise_conv/depthwise_weights"
      }
    }
  }
}
node {
  name: "DS-CNN/conv_ds_2/depthwise_conv/depthwise_weights"
  op: "VariableV2"
  attr {
    key: "_class"
    value {
      list {
        s: "loc:@DS-CNN/conv_ds_2/depthwise_conv/depthwise_weights"
      }
    }
  }
  attr {
    key: "container"
    value {
      s: ""
    }
  }
  attr {
    key: "dtype"
    value {
      type: DT_FLOAT
    }
  }
  attr {
    key: "shape"
    value {
      shape {
        dim {
          size: 3
        }
        dim {
          size: 3
        }
        dim {
          size: 76
        }
        dim {
          size: 1
        }
      }
    }
  }
  attr {
    key: "shared_name"
    value {
      s: ""
    }
  }
}
node {
  name: "DS-CNN/conv_ds_2/depthwise_conv/depthwise_weights/Assign"
  op: "Assign"
  input: "DS-CNN/conv_ds_2/depthwise_conv/depthwise_weights"
  input: "DS-CNN/conv_ds_2/depthwise_conv/depthwise_weights/Initializer/random_uniform"
  attr {
    key: "T"
    value {
      type: DT_FLOAT
    }
  }
  attr {
    key: "_class"
    value {
      list {
        s: "loc:@DS-CNN/conv_ds_2/depthwise_conv/depthwise_weights"
      }
    }
  }
  attr {
    key: "use_locking"
    value {
      b: true
    }
  }
  attr {
    key: "validate_shape"
    value {
      b: true
    }
  }
}
node {
  name: "DS-CNN/conv_ds_2/depthwise_conv/depthwise_weights/read"
  op: "Identity"
  input: "DS-CNN/conv_ds_2/depthwise_conv/depthwise_weights"
  attr {
    key: "T"
    value {
      type: DT_FLOAT
    }
  }
  attr {
    key: "_class"
    value {
      list {
        s: "loc:@DS-CNN/conv_ds_2/depthwise_conv/depthwise_weights"
      }
    }
  }
}
node {
  name: "DS-CNN/conv_ds_2/depthwise_conv/depthwise/Shape"
  op: "Const"
  attr {
    key: "dtype"
    value {
      type: DT_INT32
    }
  }
  attr {
    key: "value"
    value {
      tensor {
        dtype: DT_INT32
        tensor_shape {
          dim {
            size: 4
          }
        }
        tensor_content: "\003\000\000\000\003\000\000\000L\000\000\000\001\000\000\000"
      }
    }
  }
}
node {
  name: "DS-CNN/conv_ds_2/depthwise_conv/depthwise/dilation_rate"
  op: "Const"
  attr {
    key: "dtype"
    value {
      type: DT_INT32
    }
  }
  attr {
    key: "value"
    value {
      tensor {
        dtype: DT_INT32
        tensor_shape {
          dim {
            size: 2
          }
        }
        tensor_content: "\001\000\000\000\001\000\000\000"
      }
    }
  }
}
node {
  name: "DS-CNN/conv_ds_2/depthwise_conv/depthwise"
  op: "DepthwiseConv2dNative"
  input: "DS-CNN/conv_ds_1/pw_batch_norm/Relu"
  input: "DS-CNN/conv_ds_2/depthwise_conv/depthwise_weights/read"
  attr {
    key: "T"
    value {
      type: DT_FLOAT
    }
  }
  attr {
    key: "data_format"
    value {
      s: "NHWC"
    }
  }
  attr {
    key: "dilations"
    value {
      list {
        i: 1
        i: 1
        i: 1
        i: 1
      }
    }
  }
  attr {
    key: "padding"
    value {
      s: "SAME"
    }
  }
  attr {
    key: "strides"
    value {
      list {
        i: 1
        i: 1
        i: 1
        i: 1
      }
    }
  }
}
node {
  name: "DS-CNN/conv_ds_2/depthwise_conv/biases/Initializer/zeros"
  op: "Const"
  attr {
    key: "_class"
    value {
      list {
        s: "loc:@DS-CNN/conv_ds_2/depthwise_conv/biases"
      }
    }
  }
  attr {
    key: "dtype"
    value {
      type: DT_FLOAT
    }
  }
  attr {
    key: "value"
    value {
      tensor {
        dtype: DT_FLOAT
        tensor_shape {
          dim {
            size: 76
          }
        }
        float_val: 0.0
      }
    }
  }
}
node {
  name: "DS-CNN/conv_ds_2/depthwise_conv/biases"
  op: "VariableV2"
  attr {
    key: "_class"
    value {
      list {
        s: "loc:@DS-CNN/conv_ds_2/depthwise_conv/biases"
      }
    }
  }
  attr {
    key: "container"
    value {
      s: ""
    }
  }
  attr {
    key: "dtype"
    value {
      type: DT_FLOAT
    }
  }
  attr {
    key: "shape"
    value {
      shape {
        dim {
          size: 76
        }
      }
    }
  }
  attr {
    key: "shared_name"
    value {
      s: ""
    }
  }
}
node {
  name: "DS-CNN/conv_ds_2/depthwise_conv/biases/Assign"
  op: "Assign"
  input: "DS-CNN/conv_ds_2/depthwise_conv/biases"
  input: "DS-CNN/conv_ds_2/depthwise_conv/biases/Initializer/zeros"
  attr {
    key: "T"
    value {
      type: DT_FLOAT
    }
  }
  attr {
    key: "_class"
    value {
      list {
        s: "loc:@DS-CNN/conv_ds_2/depthwise_conv/biases"
      }
    }
  }
  attr {
    key: "use_locking"
    value {
      b: true
    }
  }
  attr {
    key: "validate_shape"
    value {
      b: true
    }
  }
}
node {
  name: "DS-CNN/conv_ds_2/depthwise_conv/biases/read"
  op: "Identity"
  input: "DS-CNN/conv_ds_2/depthwise_conv/biases"
  attr {
    key: "T"
    value {
      type: DT_FLOAT
    }
  }
  attr {
    key: "_class"
    value {
      list {
        s: "loc:@DS-CNN/conv_ds_2/depthwise_conv/biases"
      }
    }
  }
}
node {
  name: "DS-CNN/conv_ds_2/depthwise_conv/BiasAdd"
  op: "BiasAdd"
  input: "DS-CNN/conv_ds_2/depthwise_conv/depthwise"
  input: "DS-CNN/conv_ds_2/depthwise_conv/biases/read"
  attr {
    key: "T"
    value {
      type: DT_FLOAT
    }
  }
  attr {
    key: "data_format"
    value {
      s: "NHWC"
    }
  }
}
node {
  name: "DS-CNN/conv_ds_2/dw_batch_norm/beta/Initializer/zeros"
  op: "Const"
  attr {
    key: "_class"
    value {
      list {
        s: "loc:@DS-CNN/conv_ds_2/dw_batch_norm/beta"
      }
    }
  }
  attr {
    key: "dtype"
    value {
      type: DT_FLOAT
    }
  }
  attr {
    key: "value"
    value {
      tensor {
        dtype: DT_FLOAT
        tensor_shape {
          dim {
            size: 76
          }
        }
        float_val: 0.0
      }
    }
  }
}
node {
  name: "DS-CNN/conv_ds_2/dw_batch_norm/beta"
  op: "VariableV2"
  attr {
    key: "_class"
    value {
      list {
        s: "loc:@DS-CNN/conv_ds_2/dw_batch_norm/beta"
      }
    }
  }
  attr {
    key: "container"
    value {
      s: ""
    }
  }
  attr {
    key: "dtype"
    value {
      type: DT_FLOAT
    }
  }
  attr {
    key: "shape"
    value {
      shape {
        dim {
          size: 76
        }
      }
    }
  }
  attr {
    key: "shared_name"
    value {
      s: ""
    }
  }
}
node {
  name: "DS-CNN/conv_ds_2/dw_batch_norm/beta/Assign"
  op: "Assign"
  input: "DS-CNN/conv_ds_2/dw_batch_norm/beta"
  input: "DS-CNN/conv_ds_2/dw_batch_norm/beta/Initializer/zeros"
  attr {
    key: "T"
    value {
      type: DT_FLOAT
    }
  }
  attr {
    key: "_class"
    value {
      list {
        s: "loc:@DS-CNN/conv_ds_2/dw_batch_norm/beta"
      }
    }
  }
  attr {
    key: "use_locking"
    value {
      b: true
    }
  }
  attr {
    key: "validate_shape"
    value {
      b: true
    }
  }
}
node {
  name: "DS-CNN/conv_ds_2/dw_batch_norm/beta/read"
  op: "Identity"
  input: "DS-CNN/conv_ds_2/dw_batch_norm/beta"
  attr {
    key: "T"
    value {
      type: DT_FLOAT
    }
  }
  attr {
    key: "_class"
    value {
      list {
        s: "loc:@DS-CNN/conv_ds_2/dw_batch_norm/beta"
      }
    }
  }
}
node {
  name: "DS-CNN/conv_ds_2/dw_batch_norm/Const"
  op: "Const"
  attr {
    key: "dtype"
    value {
      type: DT_FLOAT
    }
  }
  attr {
    key: "value"
    value {
      tensor {
        dtype: DT_FLOAT
        tensor_shape {
          dim {
            size: 76
          }
        }
        float_val: 1.0
      }
    }
  }
}
node {
  name: "DS-CNN/conv_ds_2/dw_batch_norm/moving_mean/Initializer/zeros"
  op: "Const"
  attr {
    key: "_class"
    value {
      list {
        s: "loc:@DS-CNN/conv_ds_2/dw_batch_norm/moving_mean"
      }
    }
  }
  attr {
    key: "dtype"
    value {
      type: DT_FLOAT
    }
  }
  attr {
    key: "value"
    value {
      tensor {
        dtype: DT_FLOAT
        tensor_shape {
          dim {
            size: 76
          }
        }
        float_val: 0.0
      }
    }
  }
}
node {
  name: "DS-CNN/conv_ds_2/dw_batch_norm/moving_mean"
  op: "VariableV2"
  attr {
    key: "_class"
    value {
      list {
        s: "loc:@DS-CNN/conv_ds_2/dw_batch_norm/moving_mean"
      }
    }
  }
  attr {
    key: "container"
    value {
      s: ""
    }
  }
  attr {
    key: "dtype"
    value {
      type: DT_FLOAT
    }
  }
  attr {
    key: "shape"
    value {
      shape {
        dim {
          size: 76
        }
      }
    }
  }
  attr {
    key: "shared_name"
    value {
      s: ""
    }
  }
}
node {
  name: "DS-CNN/conv_ds_2/dw_batch_norm/moving_mean/Assign"
  op: "Assign"
  input: "DS-CNN/conv_ds_2/dw_batch_norm/moving_mean"
  input: "DS-CNN/conv_ds_2/dw_batch_norm/moving_mean/Initializer/zeros"
  attr {
    key: "T"
    value {
      type: DT_FLOAT
    }
  }
  attr {
    key: "_class"
    value {
      list {
        s: "loc:@DS-CNN/conv_ds_2/dw_batch_norm/moving_mean"
      }
    }
  }
  attr {
    key: "use_locking"
    value {
      b: true
    }
  }
  attr {
    key: "validate_shape"
    value {
      b: true
    }
  }
}
node {
  name: "DS-CNN/conv_ds_2/dw_batch_norm/moving_mean/read"
  op: "Identity"
  input: "DS-CNN/conv_ds_2/dw_batch_norm/moving_mean"
  attr {
    key: "T"
    value {
      type: DT_FLOAT
    }
  }
  attr {
    key: "_class"
    value {
      list {
        s: "loc:@DS-CNN/conv_ds_2/dw_batch_norm/moving_mean"
      }
    }
  }
}
node {
  name: "DS-CNN/conv_ds_2/dw_batch_norm/moving_variance/Initializer/ones"
  op: "Const"
  attr {
    key: "_class"
    value {
      list {
        s: "loc:@DS-CNN/conv_ds_2/dw_batch_norm/moving_variance"
      }
    }
  }
  attr {
    key: "dtype"
    value {
      type: DT_FLOAT
    }
  }
  attr {
    key: "value"
    value {
      tensor {
        dtype: DT_FLOAT
        tensor_shape {
          dim {
            size: 76
          }
        }
        float_val: 1.0
      }
    }
  }
}
node {
  name: "DS-CNN/conv_ds_2/dw_batch_norm/moving_variance"
  op: "VariableV2"
  attr {
    key: "_class"
    value {
      list {
        s: "loc:@DS-CNN/conv_ds_2/dw_batch_norm/moving_variance"
      }
    }
  }
  attr {
    key: "container"
    value {
      s: ""
    }
  }
  attr {
    key: "dtype"
    value {
      type: DT_FLOAT
    }
  }
  attr {
    key: "shape"
    value {
      shape {
        dim {
          size: 76
        }
      }
    }
  }
  attr {
    key: "shared_name"
    value {
      s: ""
    }
  }
}
node {
  name: "DS-CNN/conv_ds_2/dw_batch_norm/moving_variance/Assign"
  op: "Assign"
  input: "DS-CNN/conv_ds_2/dw_batch_norm/moving_variance"
  input: "DS-CNN/conv_ds_2/dw_batch_norm/moving_variance/Initializer/ones"
  attr {
    key: "T"
    value {
      type: DT_FLOAT
    }
  }
  attr {
    key: "_class"
    value {
      list {
        s: "loc:@DS-CNN/conv_ds_2/dw_batch_norm/moving_variance"
      }
    }
  }
  attr {
    key: "use_locking"
    value {
      b: true
    }
  }
  attr {
    key: "validate_shape"
    value {
      b: true
    }
  }
}
node {
  name: "DS-CNN/conv_ds_2/dw_batch_norm/moving_variance/read"
  op: "Identity"
  input: "DS-CNN/conv_ds_2/dw_batch_norm/moving_variance"
  attr {
    key: "T"
    value {
      type: DT_FLOAT
    }
  }
  attr {
    key: "_class"
    value {
      list {
        s: "loc:@DS-CNN/conv_ds_2/dw_batch_norm/moving_variance"
      }
    }
  }
}
node {
  name: "DS-CNN/conv_ds_2/dw_batch_norm/Const_1"
  op: "Const"
  attr {
    key: "dtype"
    value {
      type: DT_FLOAT
    }
  }
  attr {
    key: "value"
    value {
      tensor {
        dtype: DT_FLOAT
        tensor_shape {
          dim {
          }
        }
      }
    }
  }
}
node {
  name: "DS-CNN/conv_ds_2/dw_batch_norm/Const_2"
  op: "Const"
  attr {
    key: "dtype"
    value {
      type: DT_FLOAT
    }
  }
  attr {
    key: "value"
    value {
      tensor {
        dtype: DT_FLOAT
        tensor_shape {
          dim {
          }
        }
      }
    }
  }
}
node {
  name: "DS-CNN/conv_ds_2/dw_batch_norm/FusedBatchNorm"
  op: "FusedBatchNorm"
  input: "DS-CNN/conv_ds_2/depthwise_conv/BiasAdd"
  input: "DS-CNN/conv_ds_2/dw_batch_norm/Const"
  input: "DS-CNN/conv_ds_2/dw_batch_norm/beta/read"
  input: "DS-CNN/conv_ds_2/dw_batch_norm/Const_1"
  input: "DS-CNN/conv_ds_2/dw_batch_norm/Const_2"
  attr {
    key: "T"
    value {
      type: DT_FLOAT
    }
  }
  attr {
    key: "data_format"
    value {
      s: "NHWC"
    }
  }
  attr {
    key: "epsilon"
    value {
      f: 0.001
    }
  }
  attr {
    key: "is_training"
    value {
      b: true
    }
  }
}
node {
  name: "DS-CNN/conv_ds_2/dw_batch_norm/AssignMovingAvg/decay"
  op: "Const"
  attr {
    key: "_class"
    value {
      list {
        s: "loc:@DS-CNN/conv_ds_2/dw_batch_norm/moving_mean"
      }
    }
  }
  attr {
    key: "dtype"
    value {
      type: DT_FLOAT
    }
  }
  attr {
    key: "value"
    value {
      tensor {
        dtype: DT_FLOAT
        tensor_shape {
        }
        float_val: 0.03999999910593033
      }
    }
  }
}
node {
  name: "DS-CNN/conv_ds_2/dw_batch_norm/AssignMovingAvg/sub"
  op: "Sub"
  input: "DS-CNN/conv_ds_2/dw_batch_norm/moving_mean/read"
  input: "DS-CNN/conv_ds_2/dw_batch_norm/FusedBatchNorm:1"
  attr {
    key: "T"
    value {
      type: DT_FLOAT
    }
  }
  attr {
    key: "_class"
    value {
      list {
        s: "loc:@DS-CNN/conv_ds_2/dw_batch_norm/moving_mean"
      }
    }
  }
}
node {
  name: "DS-CNN/conv_ds_2/dw_batch_norm/AssignMovingAvg/mul"
  op: "Mul"
  input: "DS-CNN/conv_ds_2/dw_batch_norm/AssignMovingAvg/sub"
  input: "DS-CNN/conv_ds_2/dw_batch_norm/AssignMovingAvg/decay"
  attr {
    key: "T"
    value {
      type: DT_FLOAT
    }
  }
  attr {
    key: "_class"
    value {
      list {
        s: "loc:@DS-CNN/conv_ds_2/dw_batch_norm/moving_mean"
      }
    }
  }
}
node {
  name: "DS-CNN/conv_ds_2/dw_batch_norm/AssignMovingAvg"
  op: "AssignSub"
  input: "DS-CNN/conv_ds_2/dw_batch_norm/moving_mean"
  input: "DS-CNN/conv_ds_2/dw_batch_norm/AssignMovingAvg/mul"
  attr {
    key: "T"
    value {
      type: DT_FLOAT
    }
  }
  attr {
    key: "_class"
    value {
      list {
        s: "loc:@DS-CNN/conv_ds_2/dw_batch_norm/moving_mean"
      }
    }
  }
  attr {
    key: "use_locking"
    value {
      b: false
    }
  }
}
node {
  name: "DS-CNN/conv_ds_2/dw_batch_norm/AssignMovingAvg_1/decay"
  op: "Const"
  attr {
    key: "_class"
    value {
      list {
        s: "loc:@DS-CNN/conv_ds_2/dw_batch_norm/moving_variance"
      }
    }
  }
  attr {
    key: "dtype"
    value {
      type: DT_FLOAT
    }
  }
  attr {
    key: "value"
    value {
      tensor {
        dtype: DT_FLOAT
        tensor_shape {
        }
        float_val: 0.03999999910593033
      }
    }
  }
}
node {
  name: "DS-CNN/conv_ds_2/dw_batch_norm/AssignMovingAvg_1/sub"
  op: "Sub"
  input: "DS-CNN/conv_ds_2/dw_batch_norm/moving_variance/read"
  input: "DS-CNN/conv_ds_2/dw_batch_norm/FusedBatchNorm:2"
  attr {
    key: "T"
    value {
      type: DT_FLOAT
    }
  }
  attr {
    key: "_class"
    value {
      list {
        s: "loc:@DS-CNN/conv_ds_2/dw_batch_norm/moving_variance"
      }
    }
  }
}
node {
  name: "DS-CNN/conv_ds_2/dw_batch_norm/AssignMovingAvg_1/mul"
  op: "Mul"
  input: "DS-CNN/conv_ds_2/dw_batch_norm/AssignMovingAvg_1/sub"
  input: "DS-CNN/conv_ds_2/dw_batch_norm/AssignMovingAvg_1/decay"
  attr {
    key: "T"
    value {
      type: DT_FLOAT
    }
  }
  attr {
    key: "_class"
    value {
      list {
        s: "loc:@DS-CNN/conv_ds_2/dw_batch_norm/moving_variance"
      }
    }
  }
}
node {
  name: "DS-CNN/conv_ds_2/dw_batch_norm/AssignMovingAvg_1"
  op: "AssignSub"
  input: "DS-CNN/conv_ds_2/dw_batch_norm/moving_variance"
  input: "DS-CNN/conv_ds_2/dw_batch_norm/AssignMovingAvg_1/mul"
  attr {
    key: "T"
    value {
      type: DT_FLOAT
    }
  }
  attr {
    key: "_class"
    value {
      list {
        s: "loc:@DS-CNN/conv_ds_2/dw_batch_norm/moving_variance"
      }
    }
  }
  attr {
    key: "use_locking"
    value {
      b: false
    }
  }
}
node {
  name: "DS-CNN/conv_ds_2/dw_batch_norm/Identity"
  op: "Identity"
  input: "DS-CNN/conv_ds_2/dw_batch_norm/FusedBatchNorm"
  input: "^DS-CNN/conv_ds_2/dw_batch_norm/AssignMovingAvg"
  input: "^DS-CNN/conv_ds_2/dw_batch_norm/AssignMovingAvg_1"
  attr {
    key: "T"
    value {
      type: DT_FLOAT
    }
  }
}
node {
  name: "DS-CNN/conv_ds_2/dw_batch_norm/Relu"
  op: "Relu"
  input: "DS-CNN/conv_ds_2/dw_batch_norm/Identity"
  attr {
    key: "T"
    value {
      type: DT_FLOAT
    }
  }
}
node {
  name: "DS-CNN/conv_ds_2/pointwise_conv/weights/Initializer/random_uniform/shape"
  op: "Const"
  attr {
    key: "_class"
    value {
      list {
        s: "loc:@DS-CNN/conv_ds_2/pointwise_conv/weights"
      }
    }
  }
  attr {
    key: "dtype"
    value {
      type: DT_INT32
    }
  }
  attr {
    key: "value"
    value {
      tensor {
        dtype: DT_INT32
        tensor_shape {
          dim {
            size: 4
          }
        }
        tensor_content: "\001\000\000\000\001\000\000\000L\000\000\000L\000\000\000"
      }
    }
  }
}
node {
  name: "DS-CNN/conv_ds_2/pointwise_conv/weights/Initializer/random_uniform/min"
  op: "Const"
  attr {
    key: "_class"
    value {
      list {
        s: "loc:@DS-CNN/conv_ds_2/pointwise_conv/weights"
      }
    }
  }
  attr {
    key: "dtype"
    value {
      type: DT_FLOAT
    }
  }
  attr {
    key: "value"
    value {
      tensor {
        dtype: DT_FLOAT
        tensor_shape {
        }
        float_val: -0.1986798495054245
      }
    }
  }
}
node {
  name: "DS-CNN/conv_ds_2/pointwise_conv/weights/Initializer/random_uniform/max"
  op: "Const"
  attr {
    key: "_class"
    value {
      list {
        s: "loc:@DS-CNN/conv_ds_2/pointwise_conv/weights"
      }
    }
  }
  attr {
    key: "dtype"
    value {
      type: DT_FLOAT
    }
  }
  attr {
    key: "value"
    value {
      tensor {
        dtype: DT_FLOAT
        tensor_shape {
        }
        float_val: 0.1986798495054245
      }
    }
  }
}
node {
  name: "DS-CNN/conv_ds_2/pointwise_conv/weights/Initializer/random_uniform/RandomUniform"
  op: "RandomUniform"
  input: "DS-CNN/conv_ds_2/pointwise_conv/weights/Initializer/random_uniform/shape"
  attr {
    key: "T"
    value {
      type: DT_INT32
    }
  }
  attr {
    key: "_class"
    value {
      list {
        s: "loc:@DS-CNN/conv_ds_2/pointwise_conv/weights"
      }
    }
  }
  attr {
    key: "dtype"
    value {
      type: DT_FLOAT
    }
  }
  attr {
    key: "seed"
    value {
      i: 0
    }
  }
  attr {
    key: "seed2"
    value {
      i: 0
    }
  }
}
node {
  name: "DS-CNN/conv_ds_2/pointwise_conv/weights/Initializer/random_uniform/sub"
  op: "Sub"
  input: "DS-CNN/conv_ds_2/pointwise_conv/weights/Initializer/random_uniform/max"
  input: "DS-CNN/conv_ds_2/pointwise_conv/weights/Initializer/random_uniform/min"
  attr {
    key: "T"
    value {
      type: DT_FLOAT
    }
  }
  attr {
    key: "_class"
    value {
      list {
        s: "loc:@DS-CNN/conv_ds_2/pointwise_conv/weights"
      }
    }
  }
}
node {
  name: "DS-CNN/conv_ds_2/pointwise_conv/weights/Initializer/random_uniform/mul"
  op: "Mul"
  input: "DS-CNN/conv_ds_2/pointwise_conv/weights/Initializer/random_uniform/RandomUniform"
  input: "DS-CNN/conv_ds_2/pointwise_conv/weights/Initializer/random_uniform/sub"
  attr {
    key: "T"
    value {
      type: DT_FLOAT
    }
  }
  attr {
    key: "_class"
    value {
      list {
        s: "loc:@DS-CNN/conv_ds_2/pointwise_conv/weights"
      }
    }
  }
}
node {
  name: "DS-CNN/conv_ds_2/pointwise_conv/weights/Initializer/random_uniform"
  op: "Add"
  input: "DS-CNN/conv_ds_2/pointwise_conv/weights/Initializer/random_uniform/mul"
  input: "DS-CNN/conv_ds_2/pointwise_conv/weights/Initializer/random_uniform/min"
  attr {
    key: "T"
    value {
      type: DT_FLOAT
    }
  }
  attr {
    key: "_class"
    value {
      list {
        s: "loc:@DS-CNN/conv_ds_2/pointwise_conv/weights"
      }
    }
  }
}
node {
  name: "DS-CNN/conv_ds_2/pointwise_conv/weights"
  op: "VariableV2"
  attr {
    key: "_class"
    value {
      list {
        s: "loc:@DS-CNN/conv_ds_2/pointwise_conv/weights"
      }
    }
  }
  attr {
    key: "container"
    value {
      s: ""
    }
  }
  attr {
    key: "dtype"
    value {
      type: DT_FLOAT
    }
  }
  attr {
    key: "shape"
    value {
      shape {
        dim {
          size: 1
        }
        dim {
          size: 1
        }
        dim {
          size: 76
        }
        dim {
          size: 76
        }
      }
    }
  }
  attr {
    key: "shared_name"
    value {
      s: ""
    }
  }
}
node {
  name: "DS-CNN/conv_ds_2/pointwise_conv/weights/Assign"
  op: "Assign"
  input: "DS-CNN/conv_ds_2/pointwise_conv/weights"
  input: "DS-CNN/conv_ds_2/pointwise_conv/weights/Initializer/random_uniform"
  attr {
    key: "T"
    value {
      type: DT_FLOAT
    }
  }
  attr {
    key: "_class"
    value {
      list {
        s: "loc:@DS-CNN/conv_ds_2/pointwise_conv/weights"
      }
    }
  }
  attr {
    key: "use_locking"
    value {
      b: true
    }
  }
  attr {
    key: "validate_shape"
    value {
      b: true
    }
  }
}
node {
  name: "DS-CNN/conv_ds_2/pointwise_conv/weights/read"
  op: "Identity"
  input: "DS-CNN/conv_ds_2/pointwise_conv/weights"
  attr {
    key: "T"
    value {
      type: DT_FLOAT
    }
  }
  attr {
    key: "_class"
    value {
      list {
        s: "loc:@DS-CNN/conv_ds_2/pointwise_conv/weights"
      }
    }
  }
}
node {
  name: "DS-CNN/conv_ds_2/pointwise_conv/biases/Initializer/zeros"
  op: "Const"
  attr {
    key: "_class"
    value {
      list {
        s: "loc:@DS-CNN/conv_ds_2/pointwise_conv/biases"
      }
    }
  }
  attr {
    key: "dtype"
    value {
      type: DT_FLOAT
    }
  }
  attr {
    key: "value"
    value {
      tensor {
        dtype: DT_FLOAT
        tensor_shape {
          dim {
            size: 76
          }
        }
        float_val: 0.0
      }
    }
  }
}
node {
  name: "DS-CNN/conv_ds_2/pointwise_conv/biases"
  op: "VariableV2"
  attr {
    key: "_class"
    value {
      list {
        s: "loc:@DS-CNN/conv_ds_2/pointwise_conv/biases"
      }
    }
  }
  attr {
    key: "container"
    value {
      s: ""
    }
  }
  attr {
    key: "dtype"
    value {
      type: DT_FLOAT
    }
  }
  attr {
    key: "shape"
    value {
      shape {
        dim {
          size: 76
        }
      }
    }
  }
  attr {
    key: "shared_name"
    value {
      s: ""
    }
  }
}
node {
  name: "DS-CNN/conv_ds_2/pointwise_conv/biases/Assign"
  op: "Assign"
  input: "DS-CNN/conv_ds_2/pointwise_conv/biases"
  input: "DS-CNN/conv_ds_2/pointwise_conv/biases/Initializer/zeros"
  attr {
    key: "T"
    value {
      type: DT_FLOAT
    }
  }
  attr {
    key: "_class"
    value {
      list {
        s: "loc:@DS-CNN/conv_ds_2/pointwise_conv/biases"
      }
    }
  }
  attr {
    key: "use_locking"
    value {
      b: true
    }
  }
  attr {
    key: "validate_shape"
    value {
      b: true
    }
  }
}
node {
  name: "DS-CNN/conv_ds_2/pointwise_conv/biases/read"
  op: "Identity"
  input: "DS-CNN/conv_ds_2/pointwise_conv/biases"
  attr {
    key: "T"
    value {
      type: DT_FLOAT
    }
  }
  attr {
    key: "_class"
    value {
      list {
        s: "loc:@DS-CNN/conv_ds_2/pointwise_conv/biases"
      }
    }
  }
}
node {
  name: "DS-CNN/conv_ds_2/pointwise_conv/dilation_rate"
  op: "Const"
  attr {
    key: "dtype"
    value {
      type: DT_INT32
    }
  }
  attr {
    key: "value"
    value {
      tensor {
        dtype: DT_INT32
        tensor_shape {
          dim {
            size: 2
          }
        }
        tensor_content: "\001\000\000\000\001\000\000\000"
      }
    }
  }
}
node {
  name: "DS-CNN/conv_ds_2/pointwise_conv/Conv2D"
  op: "Conv2D"
  input: "DS-CNN/conv_ds_2/dw_batch_norm/Relu"
  input: "DS-CNN/conv_ds_2/pointwise_conv/weights/read"
  attr {
    key: "T"
    value {
      type: DT_FLOAT
    }
  }
  attr {
    key: "data_format"
    value {
      s: "NHWC"
    }
  }
  attr {
    key: "dilations"
    value {
      list {
        i: 1
        i: 1
        i: 1
        i: 1
      }
    }
  }
  attr {
    key: "padding"
    value {
      s: "SAME"
    }
  }
  attr {
    key: "strides"
    value {
      list {
        i: 1
        i: 1
        i: 1
        i: 1
      }
    }
  }
  attr {
    key: "use_cudnn_on_gpu"
    value {
      b: true
    }
  }
}
node {
  name: "DS-CNN/conv_ds_2/pointwise_conv/BiasAdd"
  op: "BiasAdd"
  input: "DS-CNN/conv_ds_2/pointwise_conv/Conv2D"
  input: "DS-CNN/conv_ds_2/pointwise_conv/biases/read"
  attr {
    key: "T"
    value {
      type: DT_FLOAT
    }
  }
  attr {
    key: "data_format"
    value {
      s: "NHWC"
    }
  }
}
node {
  name: "DS-CNN/conv_ds_2/pw_batch_norm/beta/Initializer/zeros"
  op: "Const"
  attr {
    key: "_class"
    value {
      list {
        s: "loc:@DS-CNN/conv_ds_2/pw_batch_norm/beta"
      }
    }
  }
  attr {
    key: "dtype"
    value {
      type: DT_FLOAT
    }
  }
  attr {
    key: "value"
    value {
      tensor {
        dtype: DT_FLOAT
        tensor_shape {
          dim {
            size: 76
          }
        }
        float_val: 0.0
      }
    }
  }
}
node {
  name: "DS-CNN/conv_ds_2/pw_batch_norm/beta"
  op: "VariableV2"
  attr {
    key: "_class"
    value {
      list {
        s: "loc:@DS-CNN/conv_ds_2/pw_batch_norm/beta"
      }
    }
  }
  attr {
    key: "container"
    value {
      s: ""
    }
  }
  attr {
    key: "dtype"
    value {
      type: DT_FLOAT
    }
  }
  attr {
    key: "shape"
    value {
      shape {
        dim {
          size: 76
        }
      }
    }
  }
  attr {
    key: "shared_name"
    value {
      s: ""
    }
  }
}
node {
  name: "DS-CNN/conv_ds_2/pw_batch_norm/beta/Assign"
  op: "Assign"
  input: "DS-CNN/conv_ds_2/pw_batch_norm/beta"
  input: "DS-CNN/conv_ds_2/pw_batch_norm/beta/Initializer/zeros"
  attr {
    key: "T"
    value {
      type: DT_FLOAT
    }
  }
  attr {
    key: "_class"
    value {
      list {
        s: "loc:@DS-CNN/conv_ds_2/pw_batch_norm/beta"
      }
    }
  }
  attr {
    key: "use_locking"
    value {
      b: true
…
  input: "DS-CNN/conv_ds_6/pointwise_conv/weights"
  input: "save/RestoreV2_135"
  attr {
    key: "T"
    value {
      type: DT_FLOAT
    }
  }
  attr {
    key: "_class"
    value {
      list {
        s: "loc:@DS-CNN/conv_ds_6/pointwise_conv/weights"
      }
    }
  }
  attr {
    key: "use_locking"
    value {
      b: true
    }
  }
  attr {
    key: "validate_shape"
    value {
      b: true
    }
  }
}
node {
  name: "save/RestoreV2_136/tensor_names"
  op: "Const"
  attr {
    key: "dtype"
    value {
      type: DT_STRING
    }
  }
  attr {
    key: "value"
    value {
      tensor {
        dtype: DT_STRING
        tensor_shape {
          dim {
            size: 1
          }
        }
        string_val: "DS-CNN/conv_ds_6/pointwise_conv/weights/Adam"
      }
    }
  }
}
node {
  name: "save/RestoreV2_136/shape_and_slices"
  op: "Const"
  attr {
    key: "dtype"
    value {
      type: DT_STRING
    }
  }
  attr {
    key: "value"
    value {
      tensor {
        dtype: DT_STRING
        tensor_shape {
          dim {
            size: 1
          }
        }
        string_val: ""
      }
    }
  }
}
node {
  name: "save/RestoreV2_136"
  op: "RestoreV2"
  input: "save/Const"
  input: "save/RestoreV2_136/tensor_names"
  input: "save/RestoreV2_136/shape_and_slices"
  attr {
    key: "dtypes"
    value {
      list {
        type: DT_FLOAT
      }
    }
  }
}
node {
  name: "save/Assign_136"
  op: "Assign"
  input: "DS-CNN/conv_ds_6/pointwise_conv/weights/Adam"
  input: "save/RestoreV2_136"
  attr {
    key: "T"
    value {
      type: DT_FLOAT
    }
  }
  attr {
    key: "_class"
    value {
      list {
        s: "loc:@DS-CNN/conv_ds_6/pointwise_conv/weights"
      }
    }
  }
  attr {
    key: "use_locking"
    value {
      b: true
    }
  }
  attr {
    key: "validate_shape"
    value {
      b: true
    }
  }
}
node {
  name: "save/RestoreV2_137/tensor_names"
  op: "Const"
  attr {
    key: "dtype"
    value {
      type: DT_STRING
    }
  }
  attr {
    key: "value"
    value {
      tensor {
        dtype: DT_STRING
        tensor_shape {
          dim {
            size: 1
          }
        }
        string_val: "DS-CNN/conv_ds_6/pointwise_conv/weights/Adam_1"
      }
    }
  }
}
node {
  name: "save/RestoreV2_137/shape_and_slices"
  op: "Const"
  attr {
    key: "dtype"
    value {
      type: DT_STRING
    }
  }
  attr {
    key: "value"
    value {
      tensor {
        dtype: DT_STRING
        tensor_shape {
          dim {
            size: 1
          }
        }
        string_val: ""
      }
    }
  }
}
node {
  name: "save/RestoreV2_137"
  op: "RestoreV2"
  input: "save/Const"
  input: "save/RestoreV2_137/tensor_names"
  input: "save/RestoreV2_137/shape_and_slices"
  attr {
    key: "dtypes"
    value {
      list {
        type: DT_FLOAT
      }
    }
  }
}
node {
  name: "save/Assign_137"
  op: "Assign"
  input: "DS-CNN/conv_ds_6/pointwise_conv/weights/Adam_1"
  input: "save/RestoreV2_137"
  attr {
    key: "T"
    value {
      type: DT_FLOAT
    }
  }
  attr {
    key: "_class"
    value {
      list {
        s: "loc:@DS-CNN/conv_ds_6/pointwise_conv/weights"
      }
    }
  }
  attr {
    key: "use_locking"
    value {
      b: true
    }
  }
  attr {
    key: "validate_shape"
    value {
      b: true
    }
  }
}
node {
  name: "save/RestoreV2_138/tensor_names"
  op: "Const"
  attr {
    key: "dtype"
    value {
      type: DT_STRING
    }
  }
  attr {
    key: "value"
    value {
      tensor {
        dtype: DT_STRING
        tensor_shape {
          dim {
            size: 1
          }
        }
        string_val: "DS-CNN/conv_ds_6/pw_batch_norm/beta"
      }
    }
  }
}
node {
  name: "save/RestoreV2_138/shape_and_slices"
  op: "Const"
  attr {
    key: "dtype"
    value {
      type: DT_STRING
    }
  }
  attr {
    key: "value"
    value {
      tensor {
        dtype: DT_STRING
        tensor_shape {
          dim {
            size: 1
          }
        }
        string_val: ""
      }
    }
  }
}
node {
  name: "save/RestoreV2_138"
  op: "RestoreV2"
  input: "save/Const"
  input: "save/RestoreV2_138/tensor_names"
  input: "save/RestoreV2_138/shape_and_slices"
  attr {
    key: "dtypes"
    value {
      list {
        type: DT_FLOAT
      }
    }
  }
}
node {
  name: "save/Assign_138"
  op: "Assign"
  input: "DS-CNN/conv_ds_6/pw_batch_norm/beta"
  input: "save/RestoreV2_138"
  attr {
    key: "T"
    value {
      type: DT_FLOAT
    }
  }
  attr {
    key: "_class"
    value {
      list {
        s: "loc:@DS-CNN/conv_ds_6/pw_batch_norm/beta"
      }
    }
  }
  attr {
    key: "use_locking"
    value {
      b: true
    }
  }
  attr {
    key: "validate_shape"
    value {
      b: true
    }
  }
}
node {
  name: "save/RestoreV2_139/tensor_names"
  op: "Const"
  attr {
    key: "dtype"
    value {
      type: DT_STRING
    }
  }
  attr {
    key: "value"
    value {
      tensor {
        dtype: DT_STRING
        tensor_shape {
          dim {
            size: 1
          }
        }
        string_val: "DS-CNN/conv_ds_6/pw_batch_norm/beta/Adam"
      }
    }
  }
}
node {
  name: "save/RestoreV2_139/shape_and_slices"
  op: "Const"
  attr {
    key: "dtype"
    value {
      type: DT_STRING
    }
  }
  attr {
    key: "value"
    value {
      tensor {
        dtype: DT_STRING
        tensor_shape {
          dim {
            size: 1
          }
        }
        string_val: ""
      }
    }
  }
}
node {
  name: "save/RestoreV2_139"
  op: "RestoreV2"
  input: "save/Const"
  input: "save/RestoreV2_139/tensor_names"
  input: "save/RestoreV2_139/shape_and_slices"
  attr {
    key: "dtypes"
    value {
      list {
        type: DT_FLOAT
      }
    }
  }
}
node {
  name: "save/Assign_139"
  op: "Assign"
  input: "DS-CNN/conv_ds_6/pw_batch_norm/beta/Adam"
  input: "save/RestoreV2_139"
  attr {
    key: "T"
    value {
      type: DT_FLOAT
    }
  }
  attr {
    key: "_class"
    value {
      list {
        s: "loc:@DS-CNN/conv_ds_6/pw_batch_norm/beta"
      }
    }
  }
  attr {
    key: "use_locking"
    value {
      b: true
    }
  }
  attr {
    key: "validate_shape"
    value {
      b: true
    }
  }
}
node {
  name: "save/RestoreV2_140/tensor_names"
  op: "Const"
  attr {
    key: "dtype"
    value {
      type: DT_STRING
    }
  }
  attr {
    key: "value"
    value {
      tensor {
        dtype: DT_STRING
        tensor_shape {
          dim {
            size: 1
          }
        }
        string_val: "DS-CNN/conv_ds_6/pw_batch_norm/beta/Adam_1"
      }
    }
  }
}
node {
  name: "save/RestoreV2_140/shape_and_slices"
  op: "Const"
  attr {
    key: "dtype"
    value {
      type: DT_STRING
    }
  }
  attr {
    key: "value"
    value {
      tensor {
        dtype: DT_STRING
        tensor_shape {
          dim {
            size: 1
          }
        }
        string_val: ""
      }
    }
  }
}
node {
  name: "save/RestoreV2_140"
  op: "RestoreV2"
  input: "save/Const"
  input: "save/RestoreV2_140/tensor_names"
  input: "save/RestoreV2_140/shape_and_slices"
  attr {
    key: "dtypes"
    value {
      list {
        type: DT_FLOAT
      }
    }
  }
}
node {
  name: "save/Assign_140"
  op: "Assign"
  input: "DS-CNN/conv_ds_6/pw_batch_norm/beta/Adam_1"
  input: "save/RestoreV2_140"
  attr {
    key: "T"
    value {
      type: DT_FLOAT
    }
  }
  attr {
    key: "_class"
    value {
      list {
        s: "loc:@DS-CNN/conv_ds_6/pw_batch_norm/beta"
      }
    }
  }
  attr {
    key: "use_locking"
    value {
      b: true
    }
  }
  attr {
    key: "validate_shape"
    value {
      b: true
    }
  }
}
node {
  name: "save/RestoreV2_141/tensor_names"
  op: "Const"
  attr {
    key: "dtype"
    value {
      type: DT_STRING
    }
  }
  attr {
    key: "value"
    value {
      tensor {
        dtype: DT_STRING
        tensor_shape {
          dim {
            size: 1
          }
        }
        string_val: "DS-CNN/conv_ds_6/pw_batch_norm/moving_mean"
      }
    }
  }
}
node {
  name: "save/RestoreV2_141/shape_and_slices"
  op: "Const"
  attr {
    key: "dtype"
    value {
      type: DT_STRING
    }
  }
  attr {
    key: "value"
    value {
      tensor {
        dtype: DT_STRING
        tensor_shape {
          dim {
            size: 1
          }
        }
        string_val: ""
      }
    }
  }
}
node {
  name: "save/RestoreV2_141"
  op: "RestoreV2"
  input: "save/Const"
  input: "save/RestoreV2_141/tensor_names"
  input: "save/RestoreV2_141/shape_and_slices"
  attr {
    key: "dtypes"
    value {
      list {
        type: DT_FLOAT
      }
    }
  }
}
node {
  name: "save/Assign_141"
  op: "Assign"
  input: "DS-CNN/conv_ds_6/pw_batch_norm/moving_mean"
  input: "save/RestoreV2_141"
  attr {
    key: "T"
    value {
      type: DT_FLOAT
    }
  }
  attr {
    key: "_class"
    value {
      list {
        s: "loc:@DS-CNN/conv_ds_6/pw_batch_norm/moving_mean"
      }
    }
  }
  attr {
    key: "use_locking"
    value {
      b: true
    }
  }
  attr {
    key: "validate_shape"
    value {
      b: true
    }
  }
}
node {
  name: "save/RestoreV2_142/tensor_names"
  op: "Const"
  attr {
    key: "dtype"
    value {
      type: DT_STRING
    }
  }
  attr {
    key: "value"
    value {
      tensor {
        dtype: DT_STRING
        tensor_shape {
          dim {
            size: 1
          }
        }
        string_val: "DS-CNN/conv_ds_6/pw_batch_norm/moving_variance"
      }
    }
  }
}
node {
  name: "save/RestoreV2_142/shape_and_slices"
  op: "Const"
  attr {
    key: "dtype"
    value {
      type: DT_STRING
    }
  }
  attr {
    key: "value"
    value {
      tensor {
        dtype: DT_STRING
        tensor_shape {
          dim {
            size: 1
          }
        }
        string_val: ""
      }
    }
  }
}
node {
  name: "save/RestoreV2_142"
  op: "RestoreV2"
  input: "save/Const"
  input: "save/RestoreV2_142/tensor_names"
  input: "save/RestoreV2_142/shape_and_slices"
  attr {
    key: "dtypes"
    value {
      list {
        type: DT_FLOAT
      }
    }
  }
}
node {
  name: "save/Assign_142"
  op: "Assign"
  input: "DS-CNN/conv_ds_6/pw_batch_norm/moving_variance"
  input: "save/RestoreV2_142"
  attr {
    key: "T"
    value {
      type: DT_FLOAT
    }
  }
  attr {
    key: "_class"
    value {
      list {
        s: "loc:@DS-CNN/conv_ds_6/pw_batch_norm/moving_variance"
      }
    }
  }
  attr {
    key: "use_locking"
    value {
      b: true
    }
  }
  attr {
    key: "validate_shape"
    value {
      b: true
    }
  }
}
node {
  name: "save/RestoreV2_143/tensor_names"
  op: "Const"
  attr {
    key: "dtype"
    value {
      type: DT_STRING
    }
  }
  attr {
    key: "value"
    value {
      tensor {
        dtype: DT_STRING
        tensor_shape {
          dim {
            size: 1
          }
        }
        string_val: "DS-CNN/fc1/biases"
      }
    }
  }
}
node {
  name: "save/RestoreV2_143/shape_and_slices"
  op: "Const"
  attr {
    key: "dtype"
    value {
      type: DT_STRING
    }
  }
  attr {
    key: "value"
    value {
      tensor {
        dtype: DT_STRING
        tensor_shape {
          dim {
            size: 1
          }
        }
        string_val: ""
      }
    }
  }
}
node {
  name: "save/RestoreV2_143"
  op: "RestoreV2"
  input: "save/Const"
  input: "save/RestoreV2_143/tensor_names"
  input: "save/RestoreV2_143/shape_and_slices"
  attr {
    key: "dtypes"
    value {
      list {
        type: DT_FLOAT
      }
    }
  }
}
node {
  name: "save/Assign_143"
  op: "Assign"
  input: "DS-CNN/fc1/biases"
  input: "save/RestoreV2_143"
  attr {
    key: "T"
    value {
      type: DT_FLOAT
    }
  }
  attr {
    key: "_class"
    value {
      list {
        s: "loc:@DS-CNN/fc1/biases"
      }
    }
  }
  attr {
    key: "use_locking"
    value {
      b: true
    }
  }
  attr {
    key: "validate_shape"
    value {
      b: true
    }
  }
}
node {
  name: "save/RestoreV2_144/tensor_names"
  op: "Const"
  attr {
    key: "dtype"
    value {
      type: DT_STRING
    }
  }
  attr {
    key: "value"
    value {
      tensor {
        dtype: DT_STRING
        tensor_shape {
          dim {
            size: 1
          }
        }
        string_val: "DS-CNN/fc1/biases/Adam"
      }
    }
  }
}
node {
  name: "save/RestoreV2_144/shape_and_slices"
  op: "Const"
  attr {
    key: "dtype"
    value {
      type: DT_STRING
    }
  }
  attr {
    key: "value"
    value {
      tensor {
        dtype: DT_STRING
        tensor_shape {
          dim {
            size: 1
          }
        }
        string_val: ""
      }
    }
  }
}
node {
  name: "save/RestoreV2_144"
  op: "RestoreV2"
  input: "save/Const"
  input: "save/RestoreV2_144/tensor_names"
  input: "save/RestoreV2_144/shape_and_slices"
  attr {
    key: "dtypes"
    value {
      list {
        type: DT_FLOAT
      }
    }
  }
}
node {
  name: "save/Assign_144"
  op: "Assign"
  input: "DS-CNN/fc1/biases/Adam"
  input: "save/RestoreV2_144"
  attr {
    key: "T"
    value {
      type: DT_FLOAT
    }
  }
  attr {
    key: "_class"
    value {
      list {
        s: "loc:@DS-CNN/fc1/biases"
      }
    }
  }
  attr {
    key: "use_locking"
    value {
      b: true
    }
  }
  attr {
    key: "validate_shape"
    value {
      b: true
    }
  }
}
node {
  name: "save/RestoreV2_145/tensor_names"
  op: "Const"
  attr {
    key: "dtype"
    value {
      type: DT_STRING
    }
  }
  attr {
    key: "value"
    value {
      tensor {
        dtype: DT_STRING
        tensor_shape {
          dim {
            size: 1
          }
        }
        string_val: "DS-CNN/fc1/biases/Adam_1"
      }
    }
  }
}
node {
  name: "save/RestoreV2_145/shape_and_slices"
  op: "Const"
  attr {
    key: "dtype"
    value {
      type: DT_STRING
    }
  }
  attr {
    key: "value"
    value {
      tensor {
        dtype: DT_STRING
        tensor_shape {
          dim {
            size: 1
          }
        }
        string_val: ""
      }
    }
  }
}
node {
  name: "save/RestoreV2_145"
  op: "RestoreV2"
  input: "save/Const"
  input: "save/RestoreV2_145/tensor_names"
  input: "save/RestoreV2_145/shape_and_slices"
  attr {
    key: "dtypes"
    value {
      list {
        type: DT_FLOAT
      }
    }
  }
}
node {
  name: "save/Assign_145"
  op: "Assign"
  input: "DS-CNN/fc1/biases/Adam_1"
  input: "save/RestoreV2_145"
  attr {
    key: "T"
    value {
      type: DT_FLOAT
    }
  }
  attr {
    key: "_class"
    value {
      list {
        s: "loc:@DS-CNN/fc1/biases"
      }
    }
  }
  attr {
    key: "use_locking"
    value {
      b: true
    }
  }
  attr {
    key: "validate_shape"
    value {
      b: true
    }
  }
}
node {
  name: "save/RestoreV2_146/tensor_names"
  op: "Const"
  attr {
    key: "dtype"
    value {
      type: DT_STRING
    }
  }
  attr {
    key: "value"
    value {
      tensor {
        dtype: DT_STRING
        tensor_shape {
          dim {
            size: 1
          }
        }
        string_val: "DS-CNN/fc1/weights"
      }
    }
  }
}
node {
  name: "save/RestoreV2_146/shape_and_slices"
  op: "Const"
  attr {
    key: "dtype"
    value {
      type: DT_STRING
    }
  }
  attr {
    key: "value"
    value {
      tensor {
        dtype: DT_STRING
        tensor_shape {
          dim {
            size: 1
          }
        }
        string_val: ""
      }
    }
  }
}
node {
  name: "save/RestoreV2_146"
  op: "RestoreV2"
  input: "save/Const"
  input: "save/RestoreV2_146/tensor_names"
  input: "save/RestoreV2_146/shape_and_slices"
  attr {
    key: "dtypes"
    value {
      list {
        type: DT_FLOAT
      }
    }
  }
}
node {
  name: "save/Assign_146"
  op: "Assign"
  input: "DS-CNN/fc1/weights"
  input: "save/RestoreV2_146"
  attr {
    key: "T"
    value {
      type: DT_FLOAT
    }
  }
  attr {
    key: "_class"
    value {
      list {
        s: "loc:@DS-CNN/fc1/weights"
      }
    }
  }
  attr {
    key: "use_locking"
    value {
      b: true
    }
  }
  attr {
    key: "validate_shape"
    value {
      b: true
    }
  }
}
node {
  name: "save/RestoreV2_147/tensor_names"
  op: "Const"
  attr {
    key: "dtype"
    value {
      type: DT_STRING
    }
  }
  attr {
    key: "value"
    value {
      tensor {
        dtype: DT_STRING
        tensor_shape {
          dim {
            size: 1
          }
        }
        string_val: "DS-CNN/fc1/weights/Adam"
      }
    }
  }
}
node {
  name: "save/RestoreV2_147/shape_and_slices"
  op: "Const"
  attr {
    key: "dtype"
    value {
      type: DT_STRING
    }
  }
  attr {
    key: "value"
    value {
      tensor {
        dtype: DT_STRING
        tensor_shape {
          dim {
            size: 1
          }
        }
        string_val: ""
      }
    }
  }
}
node {
  name: "save/RestoreV2_147"
  op: "RestoreV2"
  input: "save/Const"
  input: "save/RestoreV2_147/tensor_names"
  input: "save/RestoreV2_147/shape_and_slices"
  attr {
    key: "dtypes"
    value {
      list {
        type: DT_FLOAT
      }
    }
  }
}
node {
  name: "save/Assign_147"
  op: "Assign"
  input: "DS-CNN/fc1/weights/Adam"
  input: "save/RestoreV2_147"
  attr {
    key: "T"
    value {
      type: DT_FLOAT
    }
  }
  attr {
    key: "_class"
    value {
      list {
        s: "loc:@DS-CNN/fc1/weights"
      }
    }
  }
  attr {
    key: "use_locking"
    value {
      b: true
    }
  }
  attr {
    key: "validate_shape"
    value {
      b: true
    }
  }
}
node {
  name: "save/RestoreV2_148/tensor_names"
  op: "Const"
  attr {
    key: "dtype"
    value {
      type: DT_STRING
    }
  }
  attr {
    key: "value"
    value {
      tensor {
        dtype: DT_STRING
        tensor_shape {
          dim {
            size: 1
          }
        }
        string_val: "DS-CNN/fc1/weights/Adam_1"
      }
    }
  }
}
node {
  name: "save/RestoreV2_148/shape_and_slices"
  op: "Const"
  attr {
    key: "dtype"
    value {
      type: DT_STRING
    }
  }
  attr {
    key: "value"
    value {
      tensor {
        dtype: DT_STRING
        tensor_shape {
          dim {
            size: 1
          }
        }
        string_val: ""
      }
    }
  }
}
node {
  name: "save/RestoreV2_148"
  op: "RestoreV2"
  input: "save/Const"
  input: "save/RestoreV2_148/tensor_names"
  input: "save/RestoreV2_148/shape_and_slices"
  attr {
    key: "dtypes"
    value {
      list {
        type: DT_FLOAT
      }
    }
  }
}
node {
  name: "save/Assign_148"
  op: "Assign"
  input: "DS-CNN/fc1/weights/Adam_1"
  input: "save/RestoreV2_148"
  attr {
    key: "T"
    value {
      type: DT_FLOAT
    }
  }
  attr {
    key: "_class"
    value {
      list {
        s: "loc:@DS-CNN/fc1/weights"
      }
    }
  }
  attr {
    key: "use_locking"
    value {
      b: true
    }
  }
  attr {
    key: "validate_shape"
    value {
      b: true
    }
  }
}
node {
  name: "save/RestoreV2_149/tensor_names"
  op: "Const"
  attr {
    key: "dtype"
    value {
      type: DT_STRING
    }
  }
  attr {
    key: "value"
    value {
      tensor {
        dtype: DT_STRING
        tensor_shape {
          dim {
            size: 1
          }
        }
        string_val: "global_step"
      }
    }
  }
}
node {
  name: "save/RestoreV2_149/shape_and_slices"
  op: "Const"
  attr {
    key: "dtype"
    value {
      type: DT_STRING
    }
  }
  attr {
    key: "value"
    value {
      tensor {
        dtype: DT_STRING
        tensor_shape {
          dim {
            size: 1
          }
        }
        string_val: ""
      }
    }
  }
}
node {
  name: "save/RestoreV2_149"
  op: "RestoreV2"
  input: "save/Const"
  input: "save/RestoreV2_149/tensor_names"
  input: "save/RestoreV2_149/shape_and_slices"
  attr {
    key: "dtypes"
    value {
      list {
        type: DT_INT64
      }
    }
  }
}
node {
  name: "save/Assign_149"
  op: "Assign"
  input: "global_step"
  input: "save/RestoreV2_149"
  attr {
    key: "T"
    value {
      type: DT_INT64
    }
  }
  attr {
    key: "_class"
    value {
      list {
        s: "loc:@global_step"
      }
    }
  }
  attr {
    key: "use_locking"
    value {
      b: true
    }
  }
  attr {
    key: "validate_shape"
    value {
      b: true
    }
  }
}
node {
  name: "save/RestoreV2_150/tensor_names"
  op: "Const"
  attr {
    key: "dtype"
    value {
      type: DT_STRING
    }
  }
  attr {
    key: "value"
    value {
      tensor {
        dtype: DT_STRING
        tensor_shape {
          dim {
            size: 1
          }
        }
        string_val: "train/beta1_power"
      }
    }
  }
}
node {
  name: "save/RestoreV2_150/shape_and_slices"
  op: "Const"
  attr {
    key: "dtype"
    value {
      type: DT_STRING
    }
  }
  attr {
    key: "value"
    value {
      tensor {
        dtype: DT_STRING
        tensor_shape {
          dim {
            size: 1
          }
        }
        string_val: ""
      }
    }
  }
}
node {
  name: "save/RestoreV2_150"
  op: "RestoreV2"
  input: "save/Const"
  input: "save/RestoreV2_150/tensor_names"
  input: "save/RestoreV2_150/shape_and_slices"
  attr {
    key: "dtypes"
    value {
      list {
        type: DT_FLOAT
      }
    }
  }
}
node {
  name: "save/Assign_150"
  op: "Assign"
  input: "train/beta1_power"
  input: "save/RestoreV2_150"
  attr {
    key: "T"
    value {
      type: DT_FLOAT
    }
  }
  attr {
    key: "_class"
    value {
      list {
        s: "loc:@DS-CNN/conv_1/batch_norm/beta"
      }
    }
  }
  attr {
    key: "use_locking"
    value {
      b: true
    }
  }
  attr {
    key: "validate_shape"
    value {
      b: true
    }
  }
}
node {
  name: "save/RestoreV2_151/tensor_names"
  op: "Const"
  attr {
    key: "dtype"
    value {
      type: DT_STRING
    }
  }
  attr {
    key: "value"
    value {
      tensor {
        dtype: DT_STRING
        tensor_shape {
          dim {
            size: 1
          }
        }
        string_val: "train/beta2_power"
      }
    }
  }
}
node {
  name: "save/RestoreV2_151/shape_and_slices"
  op: "Const"
  attr {
    key: "dtype"
    value {
      type: DT_STRING
    }
  }
  attr {
    key: "value"
    value {
      tensor {
        dtype: DT_STRING
        tensor_shape {
          dim {
            size: 1
          }
        }
        string_val: ""
      }
    }
  }
}
node {
  name: "save/RestoreV2_151"
  op: "RestoreV2"
  input: "save/Const"
  input: "save/RestoreV2_151/tensor_names"
  input: "save/RestoreV2_151/shape_and_slices"
  attr {
    key: "dtypes"
    value {
      list {
        type: DT_FLOAT
      }
    }
  }
}
node {
  name: "save/Assign_151"
  op: "Assign"
  input: "train/beta2_power"
  input: "save/RestoreV2_151"
  attr {
    key: "T"
    value {
      type: DT_FLOAT
    }
  }
  attr {
    key: "_class"
    value {
      list {
        s: "loc:@DS-CNN/conv_1/batch_norm/beta"
      }
    }
  }
  attr {
    key: "use_locking"
    value {
      b: true
    }
  }
  attr {
    key: "validate_shape"
    value {
      b: true
    }
  }
}
node {
  name: "save/restore_all"
  op: "NoOp"
  input: "^save/Assign"
  input: "^save/Assign_1"
  input: "^save/Assign_2"
  input: "^save/Assign_3"
  input: "^save/Assign_4"
  input: "^save/Assign_5"
  input: "^save/Assign_6"
  input: "^save/Assign_7"
  input: "^save/Assign_8"
  input: "^save/Assign_9"
  input: "^save/Assign_10"
  input: "^save/Assign_11"
  input: "^save/Assign_12"
  input: "^save/Assign_13"
  input: "^save/Assign_14"
  input: "^save/Assign_15"
  input: "^save/Assign_16"
  input: "^save/Assign_17"
  input: "^save/Assign_18"
  input: "^save/Assign_19"
  input: "^save/Assign_20"
  input: "^save/Assign_21"
  input: "^save/Assign_22"
  input: "^save/Assign_23"
  input: "^save/Assign_24"
  input: "^save/Assign_25"
  input: "^save/Assign_26"
  input: "^save/Assign_27"
  input: "^save/Assign_28"
  input: "^save/Assign_29"
  input: "^save/Assign_30"
  input: "^save/Assign_31"
  input: "^save/Assign_32"
  input: "^save/Assign_33"
  input: "^save/Assign_34"
  input: "^save/Assign_35"
  input: "^save/Assign_36"
  input: "^save/Assign_37"
  input: "^save/Assign_38"
  input: "^save/Assign_39"
  input: "^save/Assign_40"
  input: "^save/Assign_41"
  input: "^save/Assign_42"
  input: "^save/Assign_43"
  input: "^save/Assign_44"
  input: "^save/Assign_45"
  input: "^save/Assign_46"
  input: "^save/Assign_47"
  input: "^save/Assign_48"
  input: "^save/Assign_49"
  input: "^save/Assign_50"
  input: "^save/Assign_51"
  input: "^save/Assign_52"
  input: "^save/Assign_53"
  input: "^save/Assign_54"
  input: "^save/Assign_55"
  input: "^save/Assign_56"
  input: "^save/Assign_57"
  input: "^save/Assign_58"
  input: "^save/Assign_59"
  input: "^save/Assign_60"
  input: "^save/Assign_61"
  input: "^save/Assign_62"
  input: "^save/Assign_63"
  input: "^save/Assign_64"
  input: "^save/Assign_65"
  input: "^save/Assign_66"
  input: "^save/Assign_67"
  input: "^save/Assign_68"
  input: "^save/Assign_69"
  input: "^save/Assign_70"
  input: "^save/Assign_71"
  input: "^save/Assign_72"
  input: "^save/Assign_73"
  input: "^save/Assign_74"
  input: "^save/Assign_75"
  input: "^save/Assign_76"
  input: "^save/Assign_77"
  input: "^save/Assign_78"
  input: "^save/Assign_79"
  input: "^save/Assign_80"
  input: "^save/Assign_81"
  input: "^save/Assign_82"
  input: "^save/Assign_83"
  input: "^save/Assign_84"
  input: "^save/Assign_85"
  input: "^save/Assign_86"
  input: "^save/Assign_87"
  input: "^save/Assign_88"
  input: "^save/Assign_89"
  input: "^save/Assign_90"
  input: "^save/Assign_91"
  input: "^save/Assign_92"
  input: "^save/Assign_93"
  input: "^save/Assign_94"
  input: "^save/Assign_95"
  input: "^save/Assign_96"
  input: "^save/Assign_97"
  input: "^save/Assign_98"
  input: "^save/Assign_99"
  input: "^save/Assign_100"
  input: "^save/Assign_101"
  input: "^save/Assign_102"
  input: "^save/Assign_103"
  input: "^save/Assign_104"
  input: "^save/Assign_105"
  input: "^save/Assign_106"
  input: "^save/Assign_107"
  input: "^save/Assign_108"
  input: "^save/Assign_109"
  input: "^save/Assign_110"
  input: "^save/Assign_111"
  input: "^save/Assign_112"
  input: "^save/Assign_113"
  input: "^save/Assign_114"
  input: "^save/Assign_115"
  input: "^save/Assign_116"
  input: "^save/Assign_117"
  input: "^save/Assign_118"
  input: "^save/Assign_119"
  input: "^save/Assign_120"
  input: "^save/Assign_121"
  input: "^save/Assign_122"
  input: "^save/Assign_123"
  input: "^save/Assign_124"
  input: "^save/Assign_125"
  input: "^save/Assign_126"
  input: "^save/Assign_127"
  input: "^save/Assign_128"
  input: "^save/Assign_129"
  input: "^save/Assign_130"
  input: "^save/Assign_131"
  input: "^save/Assign_132"
  input: "^save/Assign_133"
  input: "^save/Assign_134"
  input: "^save/Assign_135"
  input: "^save/Assign_136"
  input: "^save/Assign_137"
  input: "^save/Assign_138"
  input: "^save/Assign_139"
  input: "^save/Assign_140"
  input: "^save/Assign_141"
  input: "^save/Assign_142"
  input: "^save/Assign_143"
  input: "^save/Assign_144"
  input: "^save/Assign_145"
  input: "^save/Assign_146"
  input: "^save/Assign_147"
  input: "^save/Assign_148"
  input: "^save/Assign_149"
  input: "^save/Assign_150"
  input: "^save/Assign_151"
}
node {
  name: "Merge/MergeSummary"
  op: "MergeSummary"
  input: "cross_entropy_1"
  input: "accuracy"
  attr {
    key: "N"
    value {
      i: 2
    }
  }
}
node {
  name: "init"
  op: "NoOp"
  input: "^DS-CNN/conv_1/weights/Assign"
  input: "^DS-CNN/conv_1/biases/Assign"
  input: "^DS-CNN/conv_1/batch_norm/beta/Assign"
  input: "^DS-CNN/conv_1/batch_norm/moving_mean/Assign"
  input: "^DS-CNN/conv_1/batch_norm/moving_variance/Assign"
  input: "^DS-CNN/conv_ds_1/depthwise_conv/depthwise_weights/Assign"
  input: "^DS-CNN/conv_ds_1/depthwise_conv/biases/Assign"
  input: "^DS-CNN/conv_ds_1/dw_batch_norm/beta/Assign"
  input: "^DS-CNN/conv_ds_1/dw_batch_norm/moving_mean/Assign"
  input: "^DS-CNN/conv_ds_1/dw_batch_norm/moving_variance/Assign"
  input: "^DS-CNN/conv_ds_1/pointwise_conv/weights/Assign"
  input: "^DS-CNN/conv_ds_1/pointwise_conv/biases/Assign"
  input: "^DS-CNN/conv_ds_1/pw_batch_norm/beta/Assign"
  input: "^DS-CNN/conv_ds_1/pw_batch_norm/moving_mean/Assign"
  input: "^DS-CNN/conv_ds_1/pw_batch_norm/moving_variance/Assign"
  input: "^DS-CNN/conv_ds_2/depthwise_conv/depthwise_weights/Assign"
  input: "^DS-CNN/conv_ds_2/depthwise_conv/biases/Assign"
  input: "^DS-CNN/conv_ds_2/dw_batch_norm/beta/Assign"
  input: "^DS-CNN/conv_ds_2/dw_batch_norm/moving_mean/Assign"
  input: "^DS-CNN/conv_ds_2/dw_batch_norm/moving_variance/Assign"
  input: "^DS-CNN/conv_ds_2/pointwise_conv/weights/Assign"
  input: "^DS-CNN/conv_ds_2/pointwise_conv/biases/Assign"
  input: "^DS-CNN/conv_ds_2/pw_batch_norm/beta/Assign"
  input: "^DS-CNN/conv_ds_2/pw_batch_norm/moving_mean/Assign"
  input: "^DS-CNN/conv_ds_2/pw_batch_norm/moving_variance/Assign"
  input: "^DS-CNN/conv_ds_3/depthwise_conv/depthwise_weights/Assign"
  input: "^DS-CNN/conv_ds_3/depthwise_conv/biases/Assign"
  input: "^DS-CNN/conv_ds_3/dw_batch_norm/beta/Assign"
  input: "^DS-CNN/conv_ds_3/dw_batch_norm/moving_mean/Assign"
  input: "^DS-CNN/conv_ds_3/dw_batch_norm/moving_variance/Assign"
  input: "^DS-CNN/conv_ds_3/pointwise_conv/weights/Assign"
  input: "^DS-CNN/conv_ds_3/pointwise_conv/biases/Assign"
  input: "^DS-CNN/conv_ds_3/pw_batch_norm/beta/Assign"
  input: "^DS-CNN/conv_ds_3/pw_batch_norm/moving_mean/Assign"
  input: "^DS-CNN/conv_ds_3/pw_batch_norm/moving_variance/Assign"
  input: "^DS-CNN/conv_ds_4/depthwise_conv/depthwise_weights/Assign"
  input: "^DS-CNN/conv_ds_4/depthwise_conv/biases/Assign"
  input: "^DS-CNN/conv_ds_4/dw_batch_norm/beta/Assign"
  input: "^DS-CNN/conv_ds_4/dw_batch_norm/moving_mean/Assign"
  input: "^DS-CNN/conv_ds_4/dw_batch_norm/moving_variance/Assign"
  input: "^DS-CNN/conv_ds_4/pointwise_conv/weights/Assign"
  input: "^DS-CNN/conv_ds_4/pointwise_conv/biases/Assign"
  input: "^DS-CNN/conv_ds_4/pw_batch_norm/beta/Assign"
  input: "^DS-CNN/conv_ds_4/pw_batch_norm/moving_mean/Assign"
  input: "^DS-CNN/conv_ds_4/pw_batch_norm/moving_variance/Assign"
  input: "^DS-CNN/conv_ds_5/depthwise_conv/depthwise_weights/Assign"
  input: "^DS-CNN/conv_ds_5/depthwise_conv/biases/Assign"
  input: "^DS-CNN/conv_ds_5/dw_batch_norm/beta/Assign"
  input: "^DS-CNN/conv_ds_5/dw_batch_norm/moving_mean/Assign"
  input: "^DS-CNN/conv_ds_5/dw_batch_norm/moving_variance/Assign"
  input: "^DS-CNN/conv_ds_5/pointwise_conv/weights/Assign"
  input: "^DS-CNN/conv_ds_5/pointwise_conv/biases/Assign"
  input: "^DS-CNN/conv_ds_5/pw_batch_norm/beta/Assign"
  input: "^DS-CNN/conv_ds_5/pw_batch_norm/moving_mean/Assign"
  input: "^DS-CNN/conv_ds_5/pw_batch_norm/moving_variance/Assign"
  input: "^DS-CNN/conv_ds_6/depthwise_conv/depthwise_weights/Assign"
  input: "^DS-CNN/conv_ds_6/depthwise_conv/biases/Assign"
  input: "^DS-CNN/conv_ds_6/dw_batch_norm/beta/Assign"
  input: "^DS-CNN/conv_ds_6/dw_batch_norm/moving_mean/Assign"
  input: "^DS-CNN/conv_ds_6/dw_batch_norm/moving_variance/Assign"
  input: "^DS-CNN/conv_ds_6/pointwise_conv/weights/Assign"
  input: "^DS-CNN/conv_ds_6/pointwise_conv/biases/Assign"
  input: "^DS-CNN/conv_ds_6/pw_batch_norm/beta/Assign"
  input: "^DS-CNN/conv_ds_6/pw_batch_norm/moving_mean/Assign"
  input: "^DS-CNN/conv_ds_6/pw_batch_norm/moving_variance/Assign"
  input: "^DS-CNN/fc1/weights/Assign"
  input: "^DS-CNN/fc1/biases/Assign"
  input: "^global_step/Assign"
  input: "^train/beta1_power/Assign"
  input: "^train/beta2_power/Assign"
  input: "^DS-CNN/conv_1/weights/Adam/Assign"
  input: "^DS-CNN/conv_1/weights/Adam_1/Assign"
  input: "^DS-CNN/conv_1/biases/Adam/Assign"
  input: "^DS-CNN/conv_1/biases/Adam_1/Assign"
  input: "^DS-CNN/conv_1/batch_norm/beta/Adam/Assign"
  input: "^DS-CNN/conv_1/batch_norm/beta/Adam_1/Assign"
  input: "^DS-CNN/conv_ds_1/depthwise_conv/depthwise_weights/Adam/Assign"
  input: "^DS-CNN/conv_ds_1/depthwise_conv/depthwise_weights/Adam_1/Assign"
  input: "^DS-CNN/conv_ds_1/depthwise_conv/biases/Adam/Assign"
  input: "^DS-CNN/conv_ds_1/depthwise_conv/biases/Adam_1/Assign"
  input: "^DS-CNN/conv_ds_1/dw_batch_norm/beta/Adam/Assign"
  input: "^DS-CNN/conv_ds_1/dw_batch_norm/beta/Adam_1/Assign"
  input: "^DS-CNN/conv_ds_1/pointwise_conv/weights/Adam/Assign"
  input: "^DS-CNN/conv_ds_1/pointwise_conv/weights/Adam_1/Assign"
  input: "^DS-CNN/conv_ds_1/pointwise_conv/biases/Adam/Assign"
  input: "^DS-CNN/conv_ds_1/pointwise_conv/biases/Adam_1/Assign"
  input: "^DS-CNN/conv_ds_1/pw_batch_norm/beta/Adam/Assign"
  input: "^DS-CNN/conv_ds_1/pw_batch_norm/beta/Adam_1/Assign"
  input: "^DS-CNN/conv_ds_2/depthwise_conv/depthwise_weights/Adam/Assign"
  input: "^DS-CNN/conv_ds_2/depthwise_conv/depthwise_weights/Adam_1/Assign"
  input: "^DS-CNN/conv_ds_2/depthwise_conv/biases/Adam/Assign"
  input: "^DS-CNN/conv_ds_2/depthwise_conv/biases/Adam_1/Assign"
  input: "^DS-CNN/conv_ds_2/dw_batch_norm/beta/Adam/Assign"
  input: "^DS-CNN/conv_ds_2/dw_batch_norm/beta/Adam_1/Assign"
  input: "^DS-CNN/conv_ds_2/pointwise_conv/weights/Adam/Assign"
  input: "^DS-CNN/conv_ds_2/pointwise_conv/weights/Adam_1/Assign"
  input: "^DS-CNN/conv_ds_2/pointwise_conv/biases/Adam/Assign"
  input: "^DS-CNN/conv_ds_2/pointwise_conv/biases/Adam_1/Assign"
  input: "^DS-CNN/conv_ds_2/pw_batch_norm/beta/Adam/Assign"
  input: "^DS-CNN/conv_ds_2/pw_batch_norm/beta/Adam_1/Assign"
  input: "^DS-CNN/conv_ds_3/depthwise_conv/depthwise_weights/Adam/Assign"
  input: "^DS-CNN/conv_ds_3/depthwise_conv/depthwise_weights/Adam_1/Assign"
  input: "^DS-CNN/conv_ds_3/depthwise_conv/biases/Adam/Assign"
  input: "^DS-CNN/conv_ds_3/depthwise_conv/biases/Adam_1/Assign"
  input: "^DS-CNN/conv_ds_3/dw_batch_norm/beta/Adam/Assign"
  input: "^DS-CNN/conv_ds_3/dw_batch_norm/beta/Adam_1/Assign"
  input: "^DS-CNN/conv_ds_3/pointwise_conv/weights/Adam/Assign"
  input: "^DS-CNN/conv_ds_3/pointwise_conv/weights/Adam_1/Assign"
  input: "^DS-CNN/conv_ds_3/pointwise_conv/biases/Adam/Assign"
  input: "^DS-CNN/conv_ds_3/pointwise_conv/biases/Adam_1/Assign"
  input: "^DS-CNN/conv_ds_3/pw_batch_norm/beta/Adam/Assign"
  input: "^DS-CNN/conv_ds_3/pw_batch_norm/beta/Adam_1/Assign"
  input: "^DS-CNN/conv_ds_4/depthwise_conv/depthwise_weights/Adam/Assign"
  input: "^DS-CNN/conv_ds_4/depthwise_conv/depthwise_weights/Adam_1/Assign"
  input: "^DS-CNN/conv_ds_4/depthwise_conv/biases/Adam/Assign"
  input: "^DS-CNN/conv_ds_4/depthwise_conv/biases/Adam_1/Assign"
  input: "^DS-CNN/conv_ds_4/dw_batch_norm/beta/Adam/Assign"
  input: "^DS-CNN/conv_ds_4/dw_batch_norm/beta/Adam_1/Assign"
  input: "^DS-CNN/conv_ds_4/pointwise_conv/weights/Adam/Assign"
  input: "^DS-CNN/conv_ds_4/pointwise_conv/weights/Adam_1/Assign"
  input: "^DS-CNN/conv_ds_4/pointwise_conv/biases/Adam/Assign"
  input: "^DS-CNN/conv_ds_4/pointwise_conv/biases/Adam_1/Assign"
  input: "^DS-CNN/conv_ds_4/pw_batch_norm/beta/Adam/Assign"
  input: "^DS-CNN/conv_ds_4/pw_batch_norm/beta/Adam_1/Assign"
  input: "^DS-CNN/conv_ds_5/depthwise_conv/depthwise_weights/Adam/Assign"
  input: "^DS-CNN/conv_ds_5/depthwise_conv/depthwise_weights/Adam_1/Assign"
  input: "^DS-CNN/conv_ds_5/depthwise_conv/biases/Adam/Assign"
  input: "^DS-CNN/conv_ds_5/depthwise_conv/biases/Adam_1/Assign"
  input: "^DS-CNN/conv_ds_5/dw_batch_norm/beta/Adam/Assign"
  input: "^DS-CNN/conv_ds_5/dw_batch_norm/beta/Adam_1/Assign"
  input: "^DS-CNN/conv_ds_5/pointwise_conv/weights/Adam/Assign"
  input: "^DS-CNN/conv_ds_5/pointwise_conv/weights/Adam_1/Assign"
  input: "^DS-CNN/conv_ds_5/pointwise_conv/biases/Adam/Assign"
  input: "^DS-CNN/conv_ds_5/pointwise_conv/biases/Adam_1/Assign"
  input: "^DS-CNN/conv_ds_5/pw_batch_norm/beta/Adam/Assign"
  input: "^DS-CNN/conv_ds_5/pw_batch_norm/beta/Adam_1/Assign"
  input: "^DS-CNN/conv_ds_6/depthwise_conv/depthwise_weights/Adam/Assign"
  input: "^DS-CNN/conv_ds_6/depthwise_conv/depthwise_weights/Adam_1/Assign"
  input: "^DS-CNN/conv_ds_6/depthwise_conv/biases/Adam/Assign"
  input: "^DS-CNN/conv_ds_6/depthwise_conv/biases/Adam_1/Assign"
  input: "^DS-CNN/conv_ds_6/dw_batch_norm/beta/Adam/Assign"
  input: "^DS-CNN/conv_ds_6/dw_batch_norm/beta/Adam_1/Assign"
  input: "^DS-CNN/conv_ds_6/pointwise_conv/weights/Adam/Assign"
  input: "^DS-CNN/conv_ds_6/pointwise_conv/weights/Adam_1/Assign"
  input: "^DS-CNN/conv_ds_6/pointwise_conv/biases/Adam/Assign"
  input: "^DS-CNN/conv_ds_6/pointwise_conv/biases/Adam_1/Assign"
  input: "^DS-CNN/conv_ds_6/pw_batch_norm/beta/Adam/Assign"
  input: "^DS-CNN/conv_ds_6/pw_batch_norm/beta/Adam_1/Assign"
  input: "^DS-CNN/fc1/weights/Adam/Assign"
  input: "^DS-CNN/fc1/weights/Adam_1/Assign"
  input: "^DS-CNN/fc1/biases/Adam/Assign"
  input: "^DS-CNN/fc1/biases/Adam_1/Assign"
}
node {
  name: "Shape"
  op: "Const"
  attr {
    key: "dtype"
    value {
      type: DT_INT32
    }
  }
  attr {
    key: "value"
    value {
      tensor {
        dtype: DT_INT32
        tensor_shape {
          dim {
            size: 4
          }
        }
        tensor_content: "\n\000\000\000\004\000\000\000\001\000\000\000L\000\000\000"
      }
    }
  }
}
node {
  name: "Shape_1"
  op: "Const"
  attr {
    key: "dtype"
    value {
      type: DT_INT32
    }
  }
  attr {
    key: "value"
    value {
      tensor {
        dtype: DT_INT32
        tensor_shape {
          dim {
            size: 1
          }
        }
        int_val: 76
      }
    }
  }
}
node {
  name: "Shape_2"
  op: "Const"
  attr {
    key: "dtype"
    value {
      type: DT_INT32
    }
  }
  attr {
    key: "value"
    value {
      tensor {
        dtype: DT_INT32
        tensor_shape {
          dim {
            size: 1
          }
        }
        int_val: 76
      }
    }
  }
}
node {
  name: "Shape_3"
  op: "Const"
  attr {
    key: "dtype"
    value {
      type: DT_INT32
    }
  }
  attr {
    key: "value"
    value {
      tensor {
        dtype: DT_INT32
        tensor_shape {
          dim {
            size: 4
          }
        }
        tensor_content: "\003\000\000\000\003\000\000\000L\000\000\000\001\000\000\000"
      }
    }
  }
}
node {
  name: "Shape_4"
  op: "Const"
  attr {
    key: "dtype"
    value {
      type: DT_INT32
    }
  }
  attr {
    key: "value"
    value {
      tensor {
        dtype: DT_INT32
        tensor_shape {
          dim {
            size: 1
          }
        }
        int_val: 76
      }
    }
  }
}
node {
  name: "Shape_5"
  op: "Const"
  attr {
    key: "dtype"
    value {
      type: DT_INT32
    }
  }
  attr {
    key: "value"
    value {
      tensor {
        dtype: DT_INT32
        tensor_shape {
          dim {
            size: 1
          }
        }
        int_val: 76
      }
    }
  }
}
node {
  name: "Shape_6"
  op: "Const"
  attr {
    key: "dtype"
    value {
      type: DT_INT32
    }
  }
  attr {
    key: "value"
    value {
      tensor {
        dtype: DT_INT32
        tensor_shape {
          dim {
            size: 4
          }
        }
        tensor_content: "\001\000\000\000\001\000\000\000L\000\000\000L\000\000\000"
      }
    }
  }
}
node {
  name: "Shape_7"
  op: "Const"
  attr {
    key: "dtype"
    value {
      type: DT_INT32
    }
  }
  attr {
    key: "value"
    value {
      tensor {
        dtype: DT_INT32
        tensor_shape {
          dim {
            size: 1
          }
        }
        int_val: 76
      }
    }
  }
}
node {
  name: "Shape_8"
  op: "Const"
  attr {
    key: "dtype"
    value {
      type: DT_INT32
    }
  }
  attr {
    key: "value"
    value {
      tensor {
        dtype: DT_INT32
        tensor_shape {
          dim {
            size: 1
          }
        }
        int_val: 76
      }
    }
  }
}
node {
  name: "Shape_9"
  op: "Const"
  attr {
    key: "dtype"
    value {
      type: DT_INT32
    }
  }
  attr {
    key: "value"
    value {
      tensor {
        dtype: DT_INT32
        tensor_shape {
          dim {
            size: 4
          }
        }
        tensor_content: "\003\000\000\000\003\000\000\000L\000\000\000\001\000\000\000"
      }
    }
  }
}
node {
  name: "Shape_10"
  op: "Const"
  attr {
    key: "dtype"
    value {
      type: DT_INT32
    }
  }
  attr {
    key: "value"
    value {
      tensor {
        dtype: DT_INT32
        tensor_shape {
          dim {
            size: 1
          }
        }
        int_val: 76
      }
    }
  }
}
node {
  name: "Shape_11"
  op: "Const"
  attr {
    key: "dtype"
    value {
      type: DT_INT32
    }
  }
  attr {
    key: "value"
    value {
      tensor {
        dtype: DT_INT32
        tensor_shape {
          dim {
            size: 1
          }
        }
        int_val: 76
      }
    }
  }
}
node {
  name: "Shape_12"
  op: "Const"
  attr {
    key: "dtype"
    value {
      type: DT_INT32
    }
  }
  attr {
    key: "value"
    value {
      tensor {
        dtype: DT_INT32
        tensor_shape {
          dim {
            size: 4
          }
        }
        tensor_content: "\001\000\000\000\001\000\000\000L\000\000\000L\000\000\000"
      }
    }
  }
}
node {
  name: "Shape_13"
  op: "Const"
  attr {
    key: "dtype"
    value {
      type: DT_INT32
    }
  }
  attr {
    key: "value"
    value {
      tensor {
        dtype: DT_INT32
        tensor_shape {
          dim {
            size: 1
          }
        }
        int_val: 76
      }
    }
  }
}
node {
  name: "Shape_14"
  op: "Const"
  attr {
    key: "dtype"
    value {
      type: DT_INT32
    }
  }
  attr {
    key: "value"
    value {
      tensor {
        dtype: DT_INT32
        tensor_shape {
          dim {
            size: 1
          }
        }
        int_val: 76
      }
    }
  }
}
node {
  name: "Shape_15"
  op: "Const"
  attr {
    key: "dtype"
    value {
      type: DT_INT32
    }
  }
  attr {
    key: "value"
    value {
      tensor {
        dtype: DT_INT32
        tensor_shape {
          dim {
            size: 4
          }
        }
        tensor_content: "\003\000\000\000\003\000\000\000L\000\000\000\001\000\000\000"
      }
    }
  }
}
node {
  name: "Shape_16"
  op: "Const"
  attr {
    key: "dtype"
    value {
      type: DT_INT32
    }
  }
  attr {
    key: "value"
    value {
      tensor {
        dtype: DT_INT32
        tensor_shape {
          dim {
            size: 1
          }
        }
        int_val: 76
      }
    }
  }
}
node {
  name: "Shape_17"
  op: "Const"
  attr {
    key: "dtype"
    value {
      type: DT_INT32
    }
  }
  attr {
    key: "value"
    value {
      tensor {
        dtype: DT_INT32
        tensor_shape {
          dim {
            size: 1
          }
        }
        int_val: 76
      }
    }
  }
}
node {
  name: "Shape_18"
  op: "Const"
  attr {
    key: "dtype"
    value {
      type: DT_INT32
    }
  }
  attr {
    key: "value"
    value {
      tensor {
        dtype: DT_INT32
        tensor_shape {
          dim {
            size: 4
          }
        }
        tensor_content: "\001\000\000\000\001\000\000\000L\000\000\000L\000\000\000"
      }
    }
  }
}
node {
  name: "Shape_19"
  op: "Const"
  attr {
    key: "dtype"
    value {
      type: DT_INT32
    }
  }
  attr {
    key: "value"
    value {
      tensor {
        dtype: DT_INT32
        tensor_shape {
          dim {
            size: 1
          }
        }
        int_val: 76
      }
    }
  }
}
node {
  name: "Shape_20"
  op: "Const"
  attr {
    key: "dtype"
    value {
      type: DT_INT32
    }
  }
  attr {
    key: "value"
    value {
      tensor {
        dtype: DT_INT32
        tensor_shape {
          dim {
            size: 1
          }
        }
        int_val: 76
      }
    }
  }
}
node {
  name: "Shape_21"
  op: "Const"
  attr {
    key: "dtype"
    value {
      type: DT_INT32
    }
  }
  attr {
    key: "value"
    value {
      tensor {
        dtype: DT_INT32
        tensor_shape {
          dim {
            size: 4
          }
        }
        tensor_content: "\003\000\000\000\003\000\000\000L\000\000\000\001\000\000\000"
      }
    }
  }
}
node {
  name: "Shape_22"
  op: "Const"
  attr {
    key: "dtype"
    value {
      type: DT_INT32
    }
  }
  attr {
    key: "value"
    value {
      tensor {
        dtype: DT_INT32
        tensor_shape {
          dim {
            size: 1
          }
        }
        int_val: 76
      }
    }
  }
}
node {
  name: "Shape_23"
  op: "Const"
  attr {
    key: "dtype"
    value {
      type: DT_INT32
    }
  }
  attr {
    key: "value"
    value {
      tensor {
        dtype: DT_INT32
        tensor_shape {
          dim {
            size: 1
          }
        }
        int_val: 76
      }
    }
  }
}
node {
  name: "Shape_24"
  op: "Const"
  attr {
    key: "dtype"
    value {
      type: DT_INT32
    }
  }
  attr {
    key: "value"
    value {
      tensor {
        dtype: DT_INT32
        tensor_shape {
          dim {
            size: 4
          }
        }
        tensor_content: "\001\000\000\000\001\000\000\000L\000\000\000L\000\000\000"
      }
    }
  }
}
node {
  name: "Shape_25"
  op: "Const"
  attr {
    key: "dtype"
    value {
      type: DT_INT32
    }
  }
  attr {
    key: "value"
    value {
      tensor {
        dtype: DT_INT32
        tensor_shape {
          dim {
            size: 1
          }
        }
        int_val: 76
      }
    }
  }
}
node {
  name: "Shape_26"
  op: "Const"
  attr {
    key: "dtype"
    value {
      type: DT_INT32
    }
  }
  attr {
    key: "value"
    value {
      tensor {
        dtype: DT_INT32
        tensor_shape {
          dim {
            size: 1
          }
        }
        int_val: 76
      }
    }
  }
}
node {
  name: "Shape_27"
  op: "Const"
  attr {
    key: "dtype"
    value {
      type: DT_INT32
    }
  }
  attr {
    key: "value"
    value {
      tensor {
        dtype: DT_INT32
        tensor_shape {
          dim {
            size: 4
          }
        }
        tensor_content: "\003\000\000\000\003\000\000\000L\000\000\000\001\000\000\000"
      }
    }
  }
}
node {
  name: "Shape_28"
  op: "Const"
  attr {
    key: "dtype"
    value {
      type: DT_INT32
    }
  }
  attr {
    key: "value"
    value {
      tensor {
        dtype: DT_INT32
        tensor_shape {
          dim {
            size: 1
          }
        }
        int_val: 76
      }
    }
  }
}
node {
  name: "Shape_29"
  op: "Const"
  attr {
    key: "dtype"
    value {
      type: DT_INT32
    }
  }
  attr {
    key: "value"
    value {
      tensor {
        dtype: DT_INT32
        tensor_shape {
          dim {
            size: 1
          }
        }
        int_val: 76
      }
    }
  }
}
node {
  name: "Shape_30"
  op: "Const"
  attr {
    key: "dtype"
    value {
      type: DT_INT32
    }
  }
  attr {
    key: "value"
    value {
      tensor {
        dtype: DT_INT32
        tensor_shape {
          dim {
            size: 4
          }
        }
        tensor_content: "\001\000\000\000\001\000\000\000L\000\000\000L\000\000\000"
      }
    }
  }
}
node {
  name: "Shape_31"
  op: "Const"
  attr {
    key: "dtype"
    value {
      type: DT_INT32
    }
  }
  attr {
    key: "value"
    value {
      tensor {
        dtype: DT_INT32
        tensor_shape {
          dim {
            size: 1
          }
        }
        int_val: 76
      }
    }
  }
}
node {
  name: "Shape_32"
  op: "Const"
  attr {
    key: "dtype"
    value {
      type: DT_INT32
    }
  }
  attr {
    key: "value"
    value {
      tensor {
        dtype: DT_INT32
        tensor_shape {
          dim {
            size: 1
          }
        }
        int_val: 76
      }
    }
  }
}
node {
  name: "Shape_33"
  op: "Const"
  attr {
    key: "dtype"
    value {
      type: DT_INT32
    }
  }
  attr {
    key: "value"
    value {
      tensor {
        dtype: DT_INT32
        tensor_shape {
          dim {
            size: 4
          }
        }
        tensor_content: "\003\000\000\000\003\000\000\000L\000\000\000\001\000\000\000"
      }
    }
  }
}
node {
  name: "Shape_34"
  op: "Const"
  attr {
    key: "dtype"
    value {
      type: DT_INT32
    }
  }
  attr {
    key: "value"
    value {
      tensor {
        dtype: DT_INT32
        tensor_shape {
          dim {
            size: 1
          }
        }
        int_val: 76
      }
    }
  }
}
node {
  name: "Shape_35"
  op: "Const"
  attr {
    key: "dtype"
    value {
      type: DT_INT32
    }
  }
  attr {
    key: "value"
    value {
      tensor {
        dtype: DT_INT32
        tensor_shape {
          dim {
            size: 1
          }
        }
        int_val: 76
      }
    }
  }
}
node {
  name: "Shape_36"
  op: "Const"
  attr {
    key: "dtype"
    value {
      type: DT_INT32
    }
  }
  attr {
    key: "value"
    value {
      tensor {
        dtype: DT_INT32
        tensor_shape {
          dim {
            size: 4
          }
        }
        tensor_content: "\001\000\000\000\001\000\000\000L\000\000\000L\000\000\000"
      }
    }
  }
}
node {
  name: "Shape_37"
  op: "Const"
  attr {
    key: "dtype"
    value {
      type: DT_INT32
    }
  }
  attr {
    key: "value"
    value {
      tensor {
        dtype: DT_INT32
        tensor_shape {
          dim {
            size: 1
          }
        }
        int_val: 76
      }
    }
  }
}
node {
  name: "Shape_38"
  op: "Const"
  attr {
    key: "dtype"
    value {
      type: DT_INT32
    }
  }
  attr {
    key: "value"
    value {
      tensor {
        dtype: DT_INT32
        tensor_shape {
          dim {
            size: 1
          }
        }
        int_val: 76
      }
    }
  }
}
node {
  name: "Shape_39"
  op: "Const"
  attr {
    key: "dtype"
    value {
      type: DT_INT32
    }
  }
  attr {
    key: "value"
    value {
      tensor {
        dtype: DT_INT32
        tensor_shape {
          dim {
            size: 2
          }
        }
        tensor_content: "L\000\000\000\014\000\000\000"
      }
    }
  }
}
node {
  name: "Shape_40"
  op: "Const"
  attr {
    key: "dtype"
    value {
      type: DT_INT32
    }
  }
  attr {
    key: "value"
    value {
      tensor {
        dtype: DT_INT32
        tensor_shape {
          dim {
            size: 1
          }
        }
        int_val: 12
      }
    }
  }
}
versions {
  producer: 24
}
